model/classification_v2/adapter_model.safetensors (safetensors, 599080 bytes, 25 tensors)

base_model.model.score.weight f4 [2, 768]
00000000: b734 693d 97ec b63c 65b9 7f3c 313f 163d
00000010: aed9 8e3d 86dc 80bd 4890 b13b 4181 cbbc
00000020: 9b6f 643c cc3f 843d 3207 0bbd e026 043d
00000030: 4aab 46bd 53f5 8d3d fb34 3e3b b620 10bc
00000040: 9588 cf3c cb9d 853d 97fe 88bc adb9 8d3d
00000050: 1c01 f63b 5666 3d3d c8a6 9b3d 11e8 abbd
00000060: d548 c8bc 1011 26bc 016c 063d 525e 203c
00000070: ca7f b6bb be72 233c 4de4 123c 133f 433c
00000080: e606 343d be3a 41bc ef37 f73c 6c8b 05bc
00000090: d0dd d63a a91c 2d3d c3db 3abd 5370 bdbc
000000a0: e0a7 e5bb f13a c9bc 2fc3 1b3c 7f73 2a3d
000000b0: f813 f33b 6dad eebd a05d 30bd 2406 a13d
000000c0: 5030 5539 31e6 933c 653e 76bd 8317 03bd
000000d0: 71ca edbc 6abf 1dbd 65a7 1dbd a0b8 88bd
000000e0: 13cf 16bc a291 16bb 7d07 58bc f1e4 2bbc
000000f0: cb4a e3bc cf86 c93d f6fe 98bc ab9c 083b
00000100: b772 c93c b1f4 903d ba29 23bc f55c ab3c
00000110: c508 b13c caa8 083d bbf6 353d b80b a2bd
00000120: a1b1 813c 775e 93bd 71d9 07bd 4033 efbc
00000130: 6989 8a3c 188a 153d 2888 dc3c e1df 5ebd
00000140: d587 583d 16c5 143d f6a9 05bd 649c d1bc
00000150: 92a3 543d 22d6 a2bd 234a 333d 0c9f 1a3c
00000160: bc00 d1bc 1f9a 8dbd 9c69 583d feea 063e
00000170: 16f4 cabd 143b 87bd da0a 283c 3c01 183c
00000180: 6503 cebb 0b22 1bbd 56e1 253c f0e6 913d
00000190: a355 a83d 33ef 95bb 4ff7 4c3d 250b cf3c
000001a0: 1e3b ba3c 4139 61bd c77f 9e3d 915a a93a
000001b0: d0a2 23bc 5797 d7bc de9b c93c 956e 283c
000001c0: 3637 f9bc cd72 5abc a17f 5f3d a20e 2b3d
000001d0: 6eb8 a9bc 4f95 1fbc ebe9 e0bc 2780 433d
000001e0: ea75 9f3d 2210 a23b 277a 93bd 0819 da3c
000001f0: 2b5d b1bb b72d f4bc 4706 8139 1a5f 7ebd
00000200: 7f21 80bb af0f 4dbd 43c4 abbc f07b a83d
00000210: 91ca 293c 3657 ea3b 64d7 083b 4242 a5bd
00000220: f993 89bd 8c8e b13c fb3c 78bd d784 b6bc
00000230: 6abd 073d ae83 9b3b b0de 0a3d ee08 ecbc
00000240: fb89 873c acc7 b7bd 1646 163d 4996 6bbd
00000250: 09ce 093c 78fa bb3a 0e16 b53d 4c46 a13b
00000260: 2043 1e3d 2aab 0ebc 8137 3ebc 4909 593d
00000270: 2e13 5e3d 887e 403d c8c2 7f3b 96e7 e7bb
00000280: 65f2 e03c e856 69bc 1a0f 0fbc 872c 11bd
00000290: bbb6 8c3c c144 d4bc 0160 a53d a732 ba3c
000002a0: 7808 f0ba c314 c43d d43e 753d 595e adb9
000002b0: 237f a53d 5f98 1abc 97a5 f33c d23f 903c
000002c0: 0118 59bc 5917 8ebd 7a48 45bc 71a7 913c
000002d0: 610c a93c d805 a13c 093d d7bd b75a b2bd
000002e0: 289f 9d3d 10a1 a8bb b38d a8bc 2f7c 943c
000002f0: b89f d93b 0c62 a03d 7cf6 a6bc d575 773d
00000300: 0072 6bbc 4da3 49bd edb5 99bb a238 463d
00000310: 20bb 27be d933 20bd a95e a03d 9fe3 5439
00000320: 1031 17bd abae 9dbd edc0 f63b f4de 6e3c
00000330: b2e8 95bd 55d2 abbc aa90 01bc f877 303d
00000340: 90bb 71bd 5c40 27bd 363d 99bc d01e 77bc
00000350: 8475 103d 26e8 1bbc ea45 403d 3192 0ebd
00000360: 5ab5 abbd 3477 efba 3931 f03c 734a bf3c
00000370: a5bc 84bd 9d7b 6c3c db79 b0bd fba8 4fbd
00000380: e8cd edbc 0981 7f3c 200a a73c 34bc 323d
00000390: 8ea7 ea3b cb58 65bd f32a 983c bac1 553c
000003a0: 7e72 1b3d 82d3 83bd 1cec 8c3c f0fc 80bc
000003b0: ae0c 1c3d a1d9 a2bd a269 fb3c 566a 83bc
000003c0: d625 fc3c 092a 2dbd 6751 e13c 949e 2a3d
000003d0: 1998 553c 06f7 c7bc b763 a93c be32 23bc
000003e0: 2ae3 15bd 3958 f4bc b321 9f3d 1009 493d
000003f0: dbeb 73bd 4c3f 9bbd 250f 493d 5e1d 323d
0.05693504 0.022329612 0.015608166 0.036681358 0.06975113 -0.062920615 0.005418811 -0.024841907
0.013942624 0.06457481 -0.03394241 0.032263637 -0.048503198 0.069315575 0.0029023278 -0.008796861
0.025333682 0.06524237 -0.01672296 0.069201805 0.0075074565 0.046240173 0.076001704 -0.083938725
-0.024448792 -0.010135904 0.032817844 0.009788113 -0.005569433 0.009976087 0.008965564 0.011916894
0.04395189 -0.01179379 0.030178038 -0.008150917 0.001639301 0.04226366 -0.045619737 -0.02312485
-0.0070085377 -0.024564238 0.009506985 0.041614052 0.007418152 -0.11654172 -0.043058038 0.07862499
0.00020331261 0.0180541 -0.060118098 -0.032004844 -0.029027196 -0.038512625 -0.038489718 -0.066758394
-0.009204644 -0.0022974988 -0.013185379 -0.010491596 -0.027745625 0.09840166 -0.018676262 0.0020845335
0.024590833 0.07077921 -0.009958679 0.020918349 0.021610627 0.033364095 0.044424754 -0.079123914
0.01583177 -0.07195752 -0.033166353 -0.029199243 0.016911225 0.03650865 0.026920393 -0.054412726
0.052863915 0.03632077 -0.03263279 -0.025587268 0.051913805 -0.07950999 0.043771874 0.009437334
-0.025513045 -0.06914162 0.052835092 0.1317558 -0.09909837 -0.06603065 0.010256493 0.009277638
-0.0062870258 -0.037874263 0.010124525 0.07124126 0.08219459 -0.004575634 0.05004054 0.025273869
0.022733267 -0.054986242 0.07739215 0.0012920668 -0.009987548 -0.026317282 0.024610456 0.010280271
-0.030421834 -0.013333035 0.054565076 0.041762 -0.020717826 -0.009740188 -0.02745529 0.047729637
0.07786162 0.004945771 -0.07201033 0.026623264 -0.005412718 -0.029806955 0.00024609474 -0.062102415
-0.003910243 -0.050063785 -0.020967608 0.08226764 0.010363237 0.0071515096 0.0020880336 -0.08069278
-0.06717677 0.021674417 -0.06060503 -0.02228014 0.033139624 0.004745922 0.033903778 -0.028812852
0.016545286 -0.08973631 0.036687933 -0.05751637 0.008410939 0.0014341613 0.08842097 0.00492171
0.038638234 -0.008707801 -0.011609913 0.05298737 0.05421751 0.04699567 0.003902601 -0.0070771677
0.027459333 -0.0142419115 -0.008731628 -0.035442855 0.017176976 -0.02591169 0.08074952 0.022729231
-0.0018313071 0.095742725 0.05987437 -0.00033067426 0.0808089 -0.009435742 0.029742045 0.017608557
-0.013250352 -0.06938047 -0.012041206 0.017780038 0.020635786 0.019656107 -0.105096884 -0.08708709
0.07696372 -0.0051461533 -0.02057538 0.018125622 0.0066413544 0.07831201 -0.020381205 0.060415108
-0.014370441 -0.049228 -0.0046908767 0.048393853 -0.16379976 -0.039111946 0.07830555 0.00020302691
-0.036912024 -0.07699331 0.0075303228 0.014579523 -0.07319774 -0.020974318 -0.007908026 0.04308316
-0.059016764 -0.040832862 -0.018705945 -0.01508303 0.03526832 -0.009515798 0.046941675 -0.034807388
-0.083841994 -0.0018269778 0.029320346 0.02335093 -0.064812936 0.014433769 -0.08616992 -0.05069826
-0.029028848 0.015594729 0.02039057 0.043636516 0.0071610874 -0.055992883 0.018575167 0.013046676
0.037950985 -0.06436826 0.01720243 -0.01574561 0.03809803 -0.07951666 0.030690018 -0.016041916
0.03077976 -0.042276416 0.027504636 0.041655138 0.013036751 -0.024409782 0.02067743 -0.009960828
-0.036593594 -0.029827224 0.077700995 0.04908091 -0.0595511 -0.07580432 0.04908671 0.043485038

base_model.model.transformer.h.0.attn.c_attn.lora_A.weight f4 [4, 768]
00000000: 8179 f8bc 15a5 e2bd 10b7 17bc c208 8dbd
00000010: 5962 3bbc 0b3e e1bc 46d4 86bd 3bed 4c3c
00000020: 324f e03b d7cd 6b3d 6623 efbc b7a7 85bc
00000030: cc1a a9bc 9a7b 393c 03b3 93bd 9582 54bd
00000040: c4eb de3c 858d 533d 993d b4bd 13e6 fb3b
00000050: 1bc4 4d3d 14c1 133d a085 853d 9573 b1bd
00000060: 7007 82bd 2151 58bd 2228 eabc e4ae 76bd
00000070: 86f3 cfbd 31f9 3abd 7b98 e4bb 0175 d2bd
00000080: 95fe 24bc b70c 98bc d014 8dbd 4936 b63c
00000090: aaae f63b 94e5 063d 8eba 01bd 1b0e 2c3d
000000a0: 0730 cf3d b9de 0f3c 2300 dbbc d436 143c
000000b0: b388 223d a2d5 f3bc 429d 743c 33cc 9f3b
000000c0: 890d 1dbd 6cb5 26bc 2b51 2f3d 5579 3ebd
000000d0: 7b12 c53c cc1e 843d 261e 123d 9934 e03b
000000e0: 8e49 573b 3056 533d c73b 87bd b939 34bd
000000f0: 6b68 573d a02e b7bd 5aa4 203d d891 e4bd
00000100: 0d17 82bc e18f 9b3b ce4e b5bb 4b38 0dbd
00000110: ff47 3a3a 22bf 283d 31ed 123d 89c9 c4ba
00000120: d603 77bd 91ec c9bd 2c1b c4bb cdcf 013d
00000130: 0244 dc3c c37d c3bb f6ad 78bd 1d6e 5c3d
00000140: b55d dabb d7b7 a6bd 8144 a63d 9fb7 0bbd
00000150: 414e 43bb 89df a33c 96d6 1abd ffc9 42bc
00000160: 3a28 30bd 0206 81bd 1d7e b23d be07 dbbd
00000170: e6a7 d1bd afc7 17bd 0286 2abd 1710 0dbb
00000180: c4e0 043d ed4d 073c 6592 3cbc 42aa 8cbd
00000190: 1053 6d3d 800d 8e3d 3d26 d33c 7c8e 54bd
000001a0: e892 a63b 0044 963c 710d 4abb bfb6 09bb
000001b0: 446b 3a3c 1393 7bbb 229e eb3c fefe 99bd
000001c0: e7d2 603a 8c59 c13c e1d3 a7bc aa51 a43d
000001d0: e21a 3c3c 0461 923c 072b 49bd 2c78 ad3b
000001e0: 15f9 b4bd 0926 f13b c4f9 69bd 658d 303d
000001f0: dda2 1bbd 7b32 09bd bdf5 9b3d 9f92 ee3c
00000200: 9026 863c 8e00 3dbc 799a 023e 6bfe 98bd
00000210: b9ed db3c fe77 07bc 893b c83d ac70 16bc
00000220: 2ee2 96bd 0dff 5bbb 4798 993c 6ed7 40bc
00000230: e3b9 b2bd 9e7d 4bbd 8a9f ffbb ca52 28bd
00000240: 6279 453d a42d 94bc dc71 703d bdd4 0c3c
00000250: 97fc 613d 260b c2bc ea93 6a3c f5eb 1c3d
00000260: aa6d afbd f65b 9abd 2239 80bc ebea db3c
00000270: 68db 29bd daa9 9bbd 2dca f53d 25f3 883b
00000280: e3cd 1d3d 53b0 94bd e67e cf3d 0784 c93d
00000290: aa5f 9ebd 4688 a13d 46b8 72bd 2de8 0c3c
000002a0: 07e4 90bd aed4 eebd 6538 e2bd e612 ebbc
000002b0: 0da2 733d fb41 443d 98db a3bd 78d9 66bd
000002c0: 772f 18bd ee1c b03c e4a3 89bd e729 a23b
000002d0: ddc3 a7ba b85a 5a3d 8652 ebbb d69a d3bd
000002e0: 3a68 45bc 8ac3 49bd cc22 2ebd 3422 cdbc
000002f0: 9747 263d 5600 cd3c 27d7 753b 44e2 0dbb
00000300: 3d9d 8f3c 066c 683d e9a9 b6bc e0c3 28bc
00000310: e722 043e 9be9 d53a e469 f2bb d0cc a1bc
00000320: 87c4 4bbc 20ef 0a3e 9452 d4bb a29b 2fbb
00000330: 5340 cabb 4ad4 a03d fda9 84bd e972 25bd
00000340: 2fe4 ee3d 8894 e53c c033 c93c 0bae c8bd
00000350: ed40 173d 7765 c93b ecb6 32bd 6252 80bd
00000360: eef5 99bc 53e5 30bd 9815 5d3c 3ef3 373d
00000370: b542 613c d17b 4d3d c21d 9b3c cb7b 5dbd
00000380: 2f1c 11bd c618 473c 9072 3ebd 9cf4 d83d
00000390: e319 823d 7508 e2bd 3c41 8e3c 1a9e a5bb
000003a0: de6d 3dbb 0ff5 743d 3444 87bd 63b0 5cbd
000003b0: 7066 dcbc dc8e f8bc 9911 263d 9f53 4ebd
000003c0: 0b59 fb3c ee92 3dbd 5298 95bd ff33 b2bc
000003d0: 4003 aabc 398f 233d 5b8e 143d 6128 4dbd
000003e0: b7b9 273c c755 bc3d 4edb 36bc 3522 9bbd
000003f0: ae26 a7bd a7c7 863d 52da b7bd 6255 e03d
-0.030331375 -0.11066643 -0.009259954 -0.06886436 -0.011437022 -0.027495405 -0.06583457 0.012507732
0.0068453783 0.05756935 -0.029191684 -0.016315324 -0.02064266 0.011320973 -0.07211878 -0.051882345
0.027212031 0.051648635 -0.08800811 0.007687339 0.05023585 0.036072806 0.065196276 -0.08664624
-0.06349075 -0.052811746 -0.02858359 -0.060225382 -0.1015387 -0.045647804 -0.006976185 -0.10276223
-0.010070463 -0.01856075 -0.06888735 0.022242682 0.007528146 0.032933787 -0.031672053 0.04200564
0.10116582 0.008781129 -0.026733464 0.009046275 0.039681148 -0.029764954 0.014930071 0.0048766374
-0.038342986 -0.01017509 0.042802017 -0.04650243 0.024056664 0.064511865 0.035673283 0.0068422076
0.0032850238 0.051595867 -0.066031985 -0.04400036 0.052589815 -0.0894444 0.039219238 -0.1116063
-0.015880132 0.0047473763 -0.005533076 -0.034477513 0.0007106065 0.041197903 0.035870735 -0.0015013675
-0.060306393 -0.098595746 -0.0059846845 0.031692315 0.026887897 -0.0059659197 -0.060712777 0.05381595
-0.006664003 -0.081405334 0.08118535 -0.03411066 -0.0029801282 0.02000405 -0.0378023 -0.01188898
-0.043007113 -0.06299974 0.087154604 -0.10694836 -0.10237102 -0.037055667 -0.041631706 -0.0021524483
0.032440916 0.008258325 -0.011509513 -0.068684116 0.057940543 0.06936169 0.02577507 -0.051893696
0.0050834306 0.018342972 -0.0030830766 -0.0021013466 0.011378113 -0.0038387224 0.028761927 -0.07519339
0.0008576349 0.02360227 -0.020486774 0.08023389 0.011481019 0.017868526 -0.0491133 0.0052938666
-0.08836571 0.0073592705 -0.05712296 0.043103594 -0.037997115 -0.033495408 0.0761523 0.029122649
0.01637581 -0.011535777 0.12754239 -0.074704014 0.026846753 -0.008268354 0.097769804 -0.0091821365
-0.07367359 -0.003356877 0.01874937 -0.011770112 -0.08726861 -0.049680345 -0.007801001 -0.04109458
0.048211463 -0.01808817 0.058702335 0.008595643 0.05517253 -0.023686957 0.014317492 0.038310964
-0.08565839 -0.075370714 -0.015652243 0.026845416 -0.041469008 -0.07600756 0.120014526 0.0041793757
0.038526427 -0.07260194 0.10131626 0.09839635 -0.0773309 0.0788732 -0.059257768 0.008600277
-0.07074743 -0.11661659 -0.11045913 -0.028695535 0.059480716 0.047914486 -0.080008686 -0.056359738
-0.03715464 0.02149817 -0.06720713 0.004948843 -0.0012799461 0.053309172 -0.0071814684 -0.10332267
-0.012048775 -0.049258746 -0.042513654 -0.025040723 0.040595617 0.025024574 0.0037512274 -0.0021649757
0.017531032 0.056743644 -0.022297816 -0.0103006065 0.12903939 0.001632023 -0.007397877 -0.019750983
-0.0124369925 0.13567781 -0.0064795706 -0.0026795645 -0.006172219 0.07852991 -0.06477735 -0.04039279
0.11664616 0.028024927 0.02456081 -0.09798821 0.036927152 0.0061461288 -0.04363148 -0.06265713
-0.018794026 -0.04318745 0.013493918 0.04490971 0.013748814 0.05016691 0.018935088 -0.054073136
-0.03542727 0.012151903 -0.046495974 0.105935305 0.06352594 -0.11036769 0.01736509 -0.0050542476
-0.0028904597 0.05980402 -0.066048056 -0.053879153 -0.026904315 -0.030341558 0.040544126 -0.050372716
0.030682107 -0.0462827 -0.073044434 -0.02175331 -0.020753503 0.03993151 0.036268573 -0.050087336
0.010237149 0.09196048 -0.011160685 -0.07574884 -0.081616744 0.065810494 -0.08977188 0.109537855

base_model.model.transformer.h.0.attn.c_attn.lora_B.weight f4 [2304, 4]
00000000: ce4b ef3c ab89 f6bd 849d 483b 70bd 943c
00000010: 59d2 773d 2796 a23d 083e d33c f98d 9e3d
00000020: 6f87 f63c deb3 563b 727f 8b3c 46f6 e6bc
00000030: 02e9 a23d cedf ef3d 6ed7 cd3d c3ea 8a3c
00000040: e36b e1bd 2bc1 c53d 1797 593b b4d4 0b3d
00000050: 2ec0 003e d273 fb3b 321e 1abe 449e 98bd
00000060: e3c5 e5bc 42c2 ef3c 2e0a 4f3d e587 f4bd
00000070: 8fef 613d 0e60 d5bd b31f a1bd 47c4 9c3c
00000080: 8d50 b53d 8921 9e3d 856d 59bd fbe3 57ba
00000090: 77c7 943c d65b 163e bbab 4a3e d17d e03b
000000a0: c6e4 1c3d 9654 c13c 71d6 363d 2993 203e
000000b0: ca7f c6bd 2c46 ab3b df59 33bc b460 c0bd
000000c0: 2382 d23d 6cd5 133d 6cb2 9dbd 02b6 cdbd
000000d0: ed57 133d 3796 8ebd bb9b 623d dc87 b83b
000000e0: 2b3c 263d 7ed5 67be 59c7 c03a c23b c73b
000000f0: 9d50 b2bc c9bc 4f3e f83a d03d 437e 2f3c
00000100: 9083 f9bd e8e5 05be d60e da3d 7d94 cc3d
00000110: 2cc3 02bd 4efd 2fbe 8308 febd d19e 9bbd
00000120: d944 3dbd 0443 503d 205b 42bd a37d 83bd
00000130: e8cc 40bd 4a17 2a3d cbe6 59bc c2df 303c
00000140: 7adb 2dbd a6ef 8cbd 1c9d 563d 517a c63d
00000150: 76c8 bdbb 3672 01bd 31c9 b83d 41f3 893d
00000160: 0fc6 143d a389 b63c f62c 3b3d aa0e 343d
00000170: 8400 2b3c 70c8 82bd 6e10 35bb 7f07 a8bd
00000180: 8f7c 16bd 3f4d 70bc e389 7d3d 1092 23be
00000190: 6351 ec3c 1783 20bd e139 2d3c 3f99 b13c
000001a0: b35e 813d 8dca 71bd c803 da3d f3fc 19bc
000001b0: 606e 173d df90 afbc 0cc8 b4bd d215 4dbc
000001c0: b1d7 c9bb ddc3 833d ca79 d2bc 9708 91bd
000001d0: 7d54 f3bd 0a21 0bbb b858 413c 66d5 213e
000001e0: 0e0c b7bc f4e8 97bd 9d38 ba3c 75e7 973d
000001f0: 6e6e 8abb d67c 113b ea64 acbd 733f b2bb
00000200: 3e76 04bd e71d f2bd 7faf 87bd e9d4 b13c
00000210: 49be 9cbd f5d3 1e3e 8cda 8f3d 17ed d6bc
00000220: 0da9 243c 9fac 453d a61d 1c3c c8b1 d1bd
00000230: 6f20 de3c 344d 513d d02c cbbd 8ca5 48bb
00000240: 1b8e 183b fc6c c5bd d440 263c 5b93 a63c
00000250: 28f6 4f3d 3908 14bd 9fb1 0b3d fa49 87bd
00000260: ad7b 943c a6fa 7c3d 3ed8 08bd 1142 b43c
00000270: 62b8 313d f07a 0cbe 9231 253d 7fa0 a7bc
00000280: 525b 5dbd 7224 0cbd 6a94 883d 3958 fd3d
00000290: ab31 86bd 20d4 e13d 5a4c 85bc 61b5 f3bc
000002a0: 05ed 49bd e447 b63d 6fd4 df3d 58ad 15be
000002b0: a939 02bc fbea e93d 7740 bcbd f268 03bc
000002c0: c991 90bc 1f51 27bd 5d0c d93b 2f87 163d
000002d0: 6552 573c e306 193c ed4b 0d3e c920 023e
000002e0: a0a6 b5bc 6bc5 313d 7be4 f63d a432 25bd
000002f0: 5ed6 163d 9caa 87bd 51d0 31bd 507d 533d
00000300: fb96 02bd 542a f03a 2b8c aa3b 7ee2 f53a
00000310: 6632 8ebc 1e75 ae3d f7b3 6cbc 99a8 553d
00000320: 2511 79bd 4db3 2f3d 5d0c 143d bf0a 203c
00000330: 02e0 45bc 3165 b9bb 1b97 483d ba9f 2a3d
00000340: 3331 9fbd 04fd 023e b987 993d 8da7 653d
00000350: 2fa2 f6bc 1872 1a3e 6f00 713d 9527 683d
00000360: 35ba 17bd 74fd dbbd 466d c3bd bec7 50bd
00000370: 83bf 103d fe3b 8d3d 1867 d63d a815 36bd
00000380: d9b9 42bc 0e95 a73c c211 073e 28b3 273e
00000390: 56ef ddbb 09ba 693d 2c62 843d 2b93 c3bd
000003a0: d43b 0bbc 29fb 893d 0fd3 1f3e eb2b cf3d
000003b0: 7b24 bfbd 3eb2 863d ed97 843d c95b 833d
000003c0: 30ee abbd b106 00be 74e2 ddbc 6f0b 323d
000003d0: 9ae8 14bc 56eb a63c ee6d e73c 9716 b63c
000003e0: 5aa3 673c 0783 0ebe 3a60 aebd d97c 1c3c
000003f0: 6775 93bd b64f 903c b8dd da3d 9fa9 c2bc
0.029210951 -0.12037977 0.0030611465 0.018156737 0.060503338 0.079387955 0.025786415 0.07741923
0.030093877 0.0032761018 0.017028544 -0.028193604 0.07954599 0.11712609 0.100508556 0.016957646
-0.11006906 0.096559845 0.0033201629 0.034138396 0.1257331 0.007673719 -0.15050581 -0.07452062
-0.028048461 0.029267434 0.050546817 -0.11939982 0.0551601 -0.104187116 -0.07867374 0.019136561
0.088532545 0.0772124 -0.05308296 -0.0008235571 0.018161518 0.1468347 0.19792072 0.006850936
0.038304113 0.023599904 0.0446381 0.15681137 -0.096923426 0.005226871 -0.01094672 -0.09393445
0.10278728 0.036092207 -0.07700047 -0.10044481 0.035972524 -0.06962245 0.055324297 0.00563143
0.040584724 -0.22640035 0.0014707848 0.0060801217 -0.021766955 0.2028686 0.101674974 0.0107112555
-0.12183297 -0.13075984 0.10647361 0.099892594 -0.03192441 -0.17186472 -0.12403967 -0.07598651
-0.046208236 0.05084516 -0.047450185 -0.06420448 -0.047070414 0.041526116 -0.013299654 0.0107955355
-0.042445637 -0.06881647 0.052395925 0.09691299 -0.005791719 -0.03160306 0.09022749 0.0673585
0.036321696 0.022282427 0.045697175 0.043959297 0.010437135 -0.06385887 -0.00276282 -0.08204555
-0.036739882 -0.014666854 0.061899077 -0.15973687 0.028847402 -0.039187517 0.010572881 0.021679519
0.063168906 -0.059031058 0.106452525 -0.009398687 0.036970496 -0.021431385 -0.088272184 -0.012517409
-0.0061597456 0.06433842 -0.02569284 -0.070817165 -0.11881349 -0.002122941 0.011800937 0.15804061
-0.022344615 -0.07417479 0.022732073 0.07417194 -0.00422459 0.0022199652 -0.08417685 -0.0054396926
-0.032339327 -0.1182211 -0.0662527 0.021707969 -0.076534815 0.15510543 0.070241064 -0.0262361
0.0100500705 0.048260327 0.009528553 -0.10238987 0.027115075 0.051099017 -0.09920657 -0.0030616252
0.002327806 -0.09639928 0.010147292 0.020333936 0.050771862 -0.036140654 0.03410494 -0.06605907
0.01812538 0.061762474 -0.03340935 0.02200416 0.04338873 -0.13718772 0.040330477 -0.020462273
-0.054042168 -0.034214444 0.06668933 0.12370343 -0.06552442 0.11026788 -0.016271759 -0.029749574
-0.049298305 0.08900431 0.1092919 -0.14616907 -0.007948318 0.11421772 -0.09191983 -0.008020626
-0.01764764 -0.040848847 0.0066237883 0.036750015 0.013142203 0.009340021 0.13798495 0.12707819
-0.02217418 0.043401163 0.12055298 -0.040331498 0.03682553 -0.06624338 -0.043411557 0.05163318
-0.031882267 0.0018323162 0.0052046976 0.0018759517 -0.017358016 0.08518432 -0.014447204 0.05216274
-0.060807366 0.042895604 0.036144603 0.009768187 -0.012077333 -0.005657815 0.04897223 0.041656233
-0.07773056 0.1279183 0.0749659 0.056067992 -0.030106632 0.15082586 0.058838304 0.056678373
-0.037042815 -0.10741702 -0.09542327 -0.05097174 0.03533889 0.06896208 0.10468882 -0.044454247
-0.01188513 0.020456817 0.13190368 0.16376936 -0.006772916 0.057062183 0.06464037 -0.095495544
-0.008498151 0.06737358 0.15607856 0.101157986 -0.0933313 0.06576966 0.0647429 0.06413991
-0.0839504 -0.12502553 -0.02708552 0.043467935 -0.00908866 0.020375889 0.02825066 0.022227569
0.014138067 -0.1391717 -0.085144475 0.00955125 -0.07200127 0.017616134 0.10686821 -0.023762522

base_model.model.transformer.h.1.attn.c_attn.lora_A.weight f4 [4, 768]
00000000: 8668 e73c 2356 c4bc 242b 1cbb 22b9 193d
00000010: b409 3a3c 6cf3 d8bc e4ff aa3d a806 2ebc
00000020: 902c 20bc ea2a 6c3c f1e2 9cbd f748 613d
00000030: 18c6 70bd 824e f1bc 07c1 aebc 998f fdbc
00000040: 9179 223d 82a9 23bd 7e18 5dbd 03e2 9ebc
00000050: 34f2 ddbc 9e42 e2bc 395d 1d3d 099d 68bd
00000060: 0aef 8ebd 8c26 f3bc 2454 4bbd 1ed5 a43d
00000070: 6531 353d 718c 3b3d b9f2 f1bd b5a9 55bd
00000080: f050 edbb 47e2 283b 70a3 8e3c 478e 343d
00000090: 3b44 9cbd bdbc c7bc 5f06 d1bd 3e8b 02bd
000000a0: df03 bd3d faec 81bd 8594 39bc 424e f63d
000000b0: 4269 a83d 74f0 7c3d 1847 86bd 8b22 6b3d
000000c0: d500 fd3c 3064 af3c 3dfb 02bd 9d74 a53c
000000d0: 4840 40bd 77fa 3f3d bc34 a63d d445 3a3b
000000e0: 32b4 e3bd 3eb8 77bc 583d 223d f3f7 a1bc
000000f0: 7223 32bc b2dc 7cbd a188 d43b f44e bc3d
00000100: 7a6e 963b cc4c c73d ee6b a1bb b811 b3bc
00000110: a9c1 f83c b64f 24bc 6d3f 7b3d 6876 07bd
00000120: 6c51 613d 66d1 1f3d f2cf d5bd d6ef 433d
00000130: c655 d33c 56b6 70bd d63b 25bd 3d85 243d
00000140: 9f8b 4a3d e72e 163d 114e 65bd cf60 1ebc
00000150: 9f47 c93c 656d fc3c 8513 d4bc 0c5e 79bc
00000160: c433 193e 03cf 08bd 3bdc 203c 9d09 483c
00000170: 882d 1cbd 675a a63c 37ce 753c 06f3 2f3c
00000180: 0a67 2abd c833 063d b836 5a3d 20d2 77bd
00000190: 85c9 aa3b 51ed 1d3d 5f49 1ebd 000e 00bc
000001a0: 5d19 56bd 44dd 05bd 7863 81bd 466f f0bc
000001b0: 7e1a a4bd 4a2b 0cbd d8fb aabb 52d6 9fbd
000001c0: 665d 13bd bbf7 e03c aadc 163d 9574 f73c
000001d0: 1559 25bd f71c 28bd d847 59bd 474d c0bd
000001e0: b7ed 86bc e808 303d 22c1 4cbc 4077 a83d
000001f0: 5187 a73d 8174 ccbc 4064 50bd 3a4e bb3d
00000200: 5fb6 953c a30e 023d d543 a9bb 8ee3 e8bc
00000210: 42a6 653d 2f44 aa3c 9a69 5cbc a9e7 953d
00000220: 05b7 ffbc 4e05 f1bb a345 eebb af39 95bb
00000230: ee2f 533c b4ef a2bb 406a 87bd 639a cdbd
00000240: 3f92 94bd 2399 a5bd 7f1a b2bc ff2d ecbc
00000250: 0d34 9b3d 2633 9c3c 2958 83bd 1951 06bc
00000260: 6a3a 133d 534a 623d 5f91 c7bd 3d15 a5bd
00000270: 4d28 a7bd 1516 993c 7a70 9abc a515 643c
00000280: 0519 003d 3988 7cbc d72c 053c 2be7 4dbd
00000290: f0af 8fbd c06d 963c 1e2d a8bd 40c2 9c3b
000002a0: ad79 15bd 44bc 663d 8e52 7dbc 4b93 61bc
000002b0: 6270 97bd 9b40 68bb 66cb ee3c f33c 9ebd
000002c0: 1744 2bbd 80cc dcbd 6e4e 4b3d 14dc 04bd
000002d0: 1631 f9ba 7907 053d 8f98 d0bc a345 c73d
000002e0: e3de 68bd fc27 793d 1efa 713c 770d 20bd
000002f0: 5d38 813d 6bcb 0e3d 898a bdbd a69f 5ebd
00000300: 0c57 37bd 8e41 afbc 15c6 f5bc 54c4 003c
00000310: d76e d83b 4043 483d 993d 083d f05c 213d
00000320: ed85 3c3d 6bb6 cd3c e96d 3dbd 4b71 77bd
00000330: 4b5a 1d3d 5ede 6abc 0c68 5d3d f3c6 313c
00000340: c6bf ba3d 8576 54bd 5b14 9dbc 44a2 813d
00000350: e6aa 743d b6d9 a73c 2279 9dbd f76b 163d
00000360: 5fda a93d 08fc a6bc 55ac 343c 386a e43b
00000370: 717c 77bd 4645 983c a848 2e3d a6af f43c
00000380: 43f8 393d 31b1 833d 8a02 633c 4b19 4bbb
00000390: e490 a6bd 093b 123c 88ed 8dbd 307c 2fbc
000003a0: bc74 193d 069e f8bc 07e1 993d 1997 d53d
000003b0: 20c8 07bd 9510 ad3b 3f08 a43d 5d64 3ebc
000003c0: d1b1 00bd e88f d4bb 5c9e 9cbb 4e5b a5bd
000003d0: b0ed ac3d 1523 cebb 3fed df3c 6390 56bc
000003e0: f0be 283d e755 1abb 742e bebd 4d68 ffbc
000003f0: 6a91 70bd 334e 223d e710 4f3c 0b6f 6c3c
0.028248083 -0.023966854 -0.0023829425 0.037530072 0.0113548525 -0.02648326 0.083495885 -0.010621704
-0.0097762495 0.014414528 -0.07660473 0.055001225 -0.058782667 -0.02945638 -0.021332277 -0.030952262
0.039666716 -0.039956577 -0.053978436 -0.01939488 -0.02709303 -0.027619656 0.038418982 -0.056790385
-0.06979187 -0.029681467 -0.04964079 0.080484614 0.04423656 0.045788232 -0.11813874 -0.0521638
-0.0072423145 0.0025769637 0.017411917 0.044081 -0.076302014 -0.02438199 -0.10206293 -0.031871073
0.09229254 -0.06344028 -0.011326914 0.12026645 0.08223201 0.06175275 -0.06556529 0.05740599
0.030884186 0.021410078 -0.03197788 0.020197207 -0.046936303 0.04686972 0.08115527 0.0028422968
-0.11118354 -0.01511961 0.039609283 -0.019771552 -0.010872709 -0.06173391 0.006486014 0.091947466
0.0045908066 0.09731445 -0.0049261963 -0.021859035 0.030365782 -0.01002877 0.061339784 -0.033071905
0.05500929 0.039018057 -0.10440053 0.047836147 0.025797736 -0.05876764 -0.040340267 0.04016613
0.04944956 0.036665823 -0.055982653 -0.009666636 0.024570284 0.030813882 -0.025888214 -0.015220176
0.14961153 -0.033400547 0.009818132 0.012209323 -0.03812936 0.02030678 0.015002779 0.010739094
-0.041602172 0.032764226 0.05327484 -0.060503125 0.0052120113 0.0385564 -0.03864419 -0.007815838
-0.052270282 -0.03268172 -0.063178 -0.029349934 -0.080128655 -0.03422097 -0.0052180104 -0.0780455
-0.035977744 0.027461877 0.036831535 0.030206958 -0.04036816 -0.041043248 -0.05304703 -0.093897395
-0.016470773 0.042977244 -0.012497218 0.0822587 0.081801064 -0.024957897 -0.050876856 0.0914578
0.018275438 0.03175224 -0.005165557 -0.028428819 0.05606676 0.020784466 -0.013452912 0.07319576
-0.0312152 -0.0073553687 -0.007271485 -0.0045539956 0.012889845 -0.0049724225 -0.066120625 -0.100392126
-0.07254457 -0.08085849 -0.02174115 -0.028830526 0.07578287 0.019067358 -0.064132996 -0.008198046
0.03594438 0.055246662 -0.09744524 -0.080606915 -0.08161984 0.018687287 -0.018852461 0.013921176
0.03127386 -0.015413337 0.008128366 -0.050269287 -0.07015979 0.01836288 -0.082117304 0.0047838986
-0.036492992 0.056331888 -0.015461577 -0.013768028 -0.07394482 -0.0035438898 0.029149722 -0.07726469
-0.041812982 -0.10781193 0.049635343 -0.032436445 -0.0019011821 0.03247783 -0.02546337 0.09730079
-0.056853186 0.060829148 0.014769105 -0.03907534 0.063095786 0.034861963 -0.09254939 -0.05435147
-0.04476075 -0.021393564 -0.03000168 0.007859308 0.00660501 0.04889226 0.03326187 0.039395273
0.04602616 0.025111398 -0.046247397 -0.06041078 0.03841619 -0.014335243 0.054054305 0.010850656
0.09118609 -0.05187084 -0.019174745 0.06329778 0.059733294 0.020489555 -0.0768912 0.036724057
0.08293604 -0.02038385 0.011027415 0.00697067 -0.06042141 0.01858772 0.04254976 0.029868912
0.045402776 0.06430281 0.013855586 -0.0030990418 -0.081331044 0.008925208 -0.06930071 -0.010710761
0.037464842 -0.030348789 0.07513624 0.1042921 -0.03314984 0.0052815177 0.08009385 -0.011620608
-0.03141958 -0.0064868815 -0.00477962 -0.080740556 0.08443773 -0.006290803 0.027334807 -0.013095948
0.041197717 -0.0023549737 -0.09286204 -0.031177664 -0.058732428 0.039625358 0.012638307 0.014430772

base_model.model.transformer.h.1.attn.c_attn.lora_B.weight f4 [2304, 4]
00000000: 3bd5 dbbd 2fb6 2bbd d862 bb3c 510b 063d
00000010: 2caa d0bd 7149 a7bd b3b4 f83c eb05 303d
00000020: 4bb9 7d3d 77ac 3e3d a7a5 bf3d 818f adbd
00000030: ed11 ef39 0cf8 a73c 9bf0 463c 166c 7e3d
00000040: 13fb 513d 2fa3 1cbe c512 1a3e 25e4 17bb
00000050: 83a2 2fb8 e62b 32bd d432 94b8 177c 723d
00000060: 712f debd bd88 48bd 5162 17bd fee3 cf3d
00000070: 15b2 20be a7f8 e33d b06f 5abd 5fc6 3c3d
00000080: 6998 93bd 2e39 94bd 3c57 c43d 2d8b 4cbd
00000090: e3ec df3b fc53 65bd 1e60 bc3d 3822 14bd
000000a0: 0a49 c4bd 4738 513c bae8 2ebd 3ec4 ba3d
000000b0: 4f95 4abd db21 883c 12ad f83d 60d2 49bd
000000c0: e131 4c3c d5a1 ca3c 603e 17bd f851 1fbd
000000d0: 17bb 7b3d 6250 a33d aab7 513c 3659 f4bc
000000e0: 80ec babd af50 38bd 81fc 09be 1a9a 94bd
000000f0: e50d abbd 0908 563d 15cc 89bc aa69 253d
00000100: 9fa4 7dbc 81ca 263d b3d2 073d cef4 b13c
00000110: d225 99bd e2a1 af3d 7bf2 423c 611f babb
00000120: 37a8 033d f6ea 8f3c 4c91 85bd 6919 d5bc
00000130: f4e1 8ebd cc54 03be 340b 0ebd 8191 03bd
00000140: 4bfc 87bd 9eb5 8cbd c3da bcbc d9f6 ae3d
00000150: 7214 8f3d d855 34bd 35d2 053c 0c0c 3cbd
00000160: 0b63 1e3d e6c8 03be 892f 8d3d 161b 37bd
00000170: 4629 03bd 83e0 db3d 72cd 1c3d 0369 02bd
00000180: dd72 5f3d f544 4bbe 96e0 363e bde0 033d
00000190: d5d5 22bd 0695 d2bd 60cb 21bd 9209 a63d
000001a0: 9000 de3c df6a 783d a6b3 553e a1b6 ce3c
000001b0: 26ba 9c3b db1c 57bb 52f2 2b3d 4df8 303d
000001c0: a5f5 013d d217 d33c 6925 89bd d3cb 46bd
000001d0: 1970 35be 2faf f03c 0478 093e 08b3 b53d
000001e0: c536 973b 86d7 563d 8f70 323d a1ec 7cbd
000001f0: b586 c4bd d353 85bd 997a 583d c811 c03d
00000200: 0402 a3bd 79b8 213d 6697 673d ca72 213d
00000210: 54fe 26bd e302 dcbd 1ed0 06bd fee2 8b3b
00000220: 2c70 dfbd e307 5c3b b70e 32bd 7a78 98bd
00000230: feb0 34bc 57a3 943d 045b 5cbe a7d9 35bd
00000240: 2e80 463d a4b1 39bd d5f6 d23d fd36 b73d
00000250: cb39 8bbc 1f67 ebbd d35a 5fbd 25dd 07bd
00000260: b789 2c3d 846b 073e 7ec6 a7bc 6efd 98bd
00000270: 1176 663d 187b 8ebb 3c85 b63d 8cb7 a73d
00000280: 10a3 0dbd 429c d63c 1270 cf3c 9eb5 993d
00000290: 16b9 03bc fc13 643d 0155 aebd 0e0c 8ebd
000002a0: f9d0 0f3d 3872 013c 9039 dc3d 4c17 93bc
000002b0: 98fa 813c a0f0 61bd 7c0e b43d 8826 be3a
000002c0: 4e91 a4bc d3ee 23be cf60 dcbc 5cb0 623d
000002d0: 30fe b43c 6edd 303c 521a c7bd a929 e63b
000002e0: b994 333d f36c 0ebd a723 d43b 6cb6 a5bd
000002f0: 064e bcbc d3d2 413e ac2d a73d 8d22 5c3d
00000300: 6354 80bc e2c5 ab3d c9ea 8ebc d39a 6a3d
00000310: 4013 46bd 68ef b13c bb4b 1d3e e93f 8d3d
00000320: f85e 83bd 8c70 e0bd 6a0c 1bbd 5236 593d
00000330: c374 9dbd 9245 fbbc 3749 afbc c915 e73c
00000340: af42 f73d 5e5c 853d 6225 873d f889 babd
00000350: 766d 97bd 2451 db3c fc1f 12be edb8 0a3c
00000360: d4d8 28bd 01ad dabd 64de 673d 8cb2 133e
00000370: 26f6 d63d 5f9b 61bc fd19 b43d 7882 85bd
00000380: a567 d1bb 26c7 6ebc 7d19 c7bd c441 5d3d
00000390: d649 a43d 6272 103d 2d41 c93c f480 79bc
000003a0: d1c9 7e3d a5ef b53d 7906 0b3c 75a8 73bd
000003b0: 3610 6abc acc9 8ebd ae89 4c3e dc89 14bd
000003c0: d2b4 be3d 0359 233d 227c 5cbe 6fb4 07be
000003d0: 1e4d bb3d fd2e a5bc aedc 2e3d dc43 aebd
000003e0: 59e1 033d 302a 2cbc 149b 733c c5ef a53c
000003f0: 35b3 b7bb 598c 12be 0ac2 403d 0a26 793c
-0.1073403 -0.04192179 0.02287428 0.032725636 -0.10188708 -0.08168305 0.030359602 0.042974394
0.061944287 0.046551194 0.093577676 -0.08474637 0.00045598988 0.02050402 0.012142326 0.062114798
0.051264834 -0.15296625 0.15046223 -0.0023176756 -4.1874602e-05 -0.043498896 -7.0666574e-05 0.059200373
-0.108488925 -0.04895853 -0.036958996 0.10150908 -0.15692933 0.11131411 -0.05332917 0.04608762
-0.07206804 -0.07237469 0.09586951 -0.049937416 0.006833659 -0.055988297 0.091980204 -0.036165446
-0.095842436 0.012769765 -0.042702414 0.091194615 -0.049458798 0.016617706 0.121423855 -0.049272895
0.012463064 0.02473537 -0.03692472 -0.03889653 0.06145772 0.07974316 0.012800137 -0.029827695
-0.0912714 -0.04499882 -0.13475229 -0.07255955 -0.083522595 0.052253757 -0.016820947 0.040383972
-0.015481143 0.040720467 0.033159923 0.021723177 -0.07477917 0.085757986 0.011898632 -0.00568001
0.032142844 0.017568093 -0.06521854 -0.026013093 -0.06976691 -0.12825316 -0.034678653 -0.032121185
-0.06639918 -0.06870578 -0.023053532 0.08543176 0.069863215 -0.04402718 0.008167793 -0.045909926
0.038668673 -0.12869605 0.06893832 -0.044703566 -0.032021783 0.107361816 0.038281865 -0.03183843
0.0545529 -0.19850524 0.1785911 0.03219675 -0.039754707 -0.1028233 -0.039500594 0.08107294
0.027099878 0.060648795 0.20869312 0.025233569 0.004782933 -0.0032823596 0.04197914 0.043205548
0.031728406 0.025768194 -0.066965885 -0.048534226 -0.17718543 0.029380409 0.13424689 0.08872038
0.0046146833 0.052451633 0.043564375 -0.061749104 -0.09596006 -0.06510129 0.052851293 0.093783915
-0.07959369 0.039482567 0.05654087 0.039416112 -0.04076989 -0.10742738 -0.03291332 0.004269003
-0.10910067 0.0033574037 -0.043471064 -0.07444854 -0.011028526 0.07257717 -0.21519095 -0.044397023
0.048462085 -0.045335427 0.10300986 0.08946035 -0.016995331 -0.11494278 -0.054529976 -0.033169884
0.042123523 0.13224608 -0.02048039 -0.07470213 0.05626494 -0.00434817 0.08912131 0.08189306
-0.034579337 0.026197556 0.025321994 0.07505344 -0.008039733 0.05568312 -0.08512307 -0.06935893
0.0351114 0.007900767 0.10753167 -0.017955445 0.015866563 -0.05516112 0.08791825 0.0014507333
-0.020088818 -0.16009073 -0.02690163 0.05534397 0.022093862 0.01079498 -0.09721817 0.0070240092
0.043843005 -0.03477187 0.0064739767 -0.08091435 -0.022986423 0.1892808 0.08163008 0.053743888
-0.015665239 0.083873525 -0.017445939 0.057276558 -0.048358202 0.021720603 0.1536092 0.068969555
-0.06414598 -0.109589666 -0.037853636 0.05303032 -0.07688286 -0.030672822 -0.021397216 0.02820863
0.12073266 0.06511758 0.06598927 -0.09108347 -0.07393925 0.02677209 -0.14270014 0.008466941
-0.04122241 -0.10677529 0.056608573 0.14423579 0.10496168 -0.0137699535 0.08794019 -0.065190256
-0.006390529 -0.014573848 -0.097216584 0.054017797 0.080218956 0.035265334 0.024567211 -0.015228499
0.062204186 0.08883599 0.00848543 -0.059486825 -0.014286092 -0.069720596 0.19974396 -0.036264285
0.093118325 0.03987981 -0.21531728 -0.13252424 0.09145568 -0.020164007 0.042690925 -0.08509037
0.03219733 -0.010508105 0.0148685165 0.020255933 -0.00560608 -0.14311351 0.04706005 0.015206823

base_model.model.transformer.h.10.attn.c_attn.lora_A.weight f4 [4, 768]
00000000: 618b 723d 26f8 07bd abc8 e2bc e76b 073d
00000010: c568 acbd c668 b73c 1040 33bd 1323 763c
00000020: 804b 463c 0442 e6bb 7866 79bd 38bf cbbd
00000030: ea53 9a3c 2d72 063c c22a 95bd 1650 d23d
00000040: c3ad a4bb 60dc b83b d854 8abd 9f5f a63b
00000050: 6d5c 073e f491 df3d f073 543d da90 113d
00000060: 0ab4 5ebd 2574 b23d 402e 1b3d 8e04 7a3c
00000070: f8c0 01bd 7744 d6bd edeb 08bb a48a c83d
00000080: eccd 64bd f773 03bd 3af0 5fbc d982 05bd
00000090: b02d e5bb 8406 60bd e2fe 96bd b930 d8bc
000000a0: 9b16 79bc 3329 2fbb 11ab a63c e81b 52bd
000000b0: b362 4e3d 206b 753d a0d2 e6bd 90cb c03b
000000c0: a34d 07bd 3c99 f0bc 15d3 8dbc cb05 b6bc
000000d0: 0206 e13d d432 c5b9 30fe bfbd 1b71 23bd
000000e0: ead7 82bc 220b 86bc 5d18 b53d 150f 01bc
000000f0: 3d31 7bbd f94c 4a3d 7fbb 5a3c 00a2 033d
00000100: e5f5 413c 79c7 703d eb6c 65bd cc3e c1bd
00000110: 09d9 f03c 0018 8b3d c746 f2bb 1253 5fbd
00000120: 19d8 1d3c 609d d0bc cdc5 6c3d 2edd 673d
00000130: 71cc 403d 0815 263e cdf5 483d da82 ae3c
00000140: 5051 d63b 5da6 403c 3952 b13d 84e1 1c3e
00000150: 50a4 cdbd 3504 4abd d91e 5abd 4f59 2d3d
00000160: 0bf6 b23d fb6a 8bbd 6e08 b73d b1ad 84bb
00000170: e41a 85bd f285 8ebd 92c3 52bc 7f64 bfbd
00000180: 0c2d 02bd 8cb6 fc3c 01e1 393c 2ebe a03d
00000190: 7f63 543d a6f0 adbd 5490 53bc bede 7cbd
000001a0: 4e79 6b3d 2e53 50bc 84c7 adbd 2656 c53c
000001b0: 2cb3 4a3d 3e9d 253b 4d6e a2bd 3ada d13d
000001c0: 384a 833d 3526 bcbd 0502 bdbc de08 56bd
000001d0: 27dd 713c 97ec 11bd 9f9d 363d 3796 ef3b
000001e0: e7fe 673c fb98 65bc 331c 4abd d3e8 c4bc
000001f0: 3b7c 9b3d e917 843c efcd d6bc bce2 523b
00000200: 4d97 d23c aa5b bcbb 9650 4b3d 98d5 d33c
00000210: c8e6 513c 094b 5bbd f1f9 0cbe 57e8 ebbd
00000220: 082e d93c 00e9 d83c 0735 2a3d 55e0 393c
00000230: 8eb5 ba3c ba29 013d 777f 40bd 3a1e 5e3c
00000240: a758 5ebb db3b 4a3c 78f7 173d 18e7 29be
00000250: 1980 863d 1d96 c5bd 1978 133e 8fc8 723b
00000260: 10b2 dd3c 2999 a7bd 81bb b23b 8ab0 2fbd
00000270: 872e 22bd ac92 363c 5140 773d 3af3 6abd
00000280: a195 a53d 0d9f 49bc f77f 003d 2726 5a3d
00000290: 697e 5cbd 470c 54bc c405 f43c e231 493d
000002a0: a3b1 843c 6c36 b63c 5482 a4bc 0317 93bd
000002b0: 17fc 9abd 5cc1 df3c ad56 87bd 6f77 823d
000002c0: 4329 90bc 9b6a 083d 8541 a4bc 72d7 76bc
000002d0: 5d84 463d a934 773d b75f d63d 8017 c8bc
000002e0: 79a7 293d 4832 eebb b2d5 a73d 76b6 123d
000002f0: 188d 153e 3634 c23d b088 70bc 51de a3bd
00000300: 3282 b63d e006 64bd a870 9a3d 614d 963c
00000310: fbbf cbbd 1176 4bba 60b2 063c e3f0 d1bd
00000320: 8bad 183d d2f3 82bb d9d1 c53d 72e5 2cbd
00000330: 0af7 a0bb 78b8 dabc 9f2c cdbc 6140 89bd
00000340: de58 bebc 8c1d 433d 0aa5 e83c 4ace ca3c
00000350: f8bc 90bc 4035 bf3b 0984 4c3d 4246 0bbd
00000360: 1605 a2bd e8bd 543c 5116 463d fc60 803d
00000370: f650 0e3d 3d9a 1dbd 8467 373d e68a 25bd
00000380: 83a5 053b 8268 f0bb d036 293d d554 e9bc
00000390: f333 753d d91d 123d 6a43 43bd 02d8 a0bb
000003a0: 4510 b4bd f54b 873c 8062 3b3d b655 c5bc
000003b0: 89c2 053d 8f1f c1bd 1ff2 0d3d 4eae 2dbd
000003c0: eb5d 7d3c cd4a 353d 71b0 873d 74a4 ccbd
000003d0: 8ea8 983c a1ea cb3d 9e87 293d a293 823d
000003e0: 0935 cd3d 56df 853d 281a 1cbd 085b b5bc
000003f0: cf3a d0bd 3164 813d 82b4 2dbd d0c5 47ba
0.059214953 -0.033195637 -0.027683577 0.033061888 -0.08418421 0.022388827 -0.043762267 0.015023011
0.012102962 -0.0070269126 -0.060888737 -0.099485815 0.018838841 0.008205933 -0.07283546 0.102691814
-0.005025597 0.005641505 -0.06754464 0.005077317 0.13218851 0.1091651 0.05186838 0.03553853
-0.054370917 0.08713559 0.037885904 0.015259875 -0.03167817 -0.104622774 -0.0020892576 0.097920686
-0.055860445 -0.032093015 -0.013668114 -0.03259549 -0.0069939718 -0.054693714 -0.07372834 -0.02639042
-0.0152031435 -0.0026727438 0.020345243 -0.051296145 0.050387096 0.059916615 -0.11270642 0.0058836415
-0.033033025 -0.029369943 -0.017312566 -0.02221956 0.10987474 -0.00037612638 -0.09374654 -0.039902788
-0.015972096 -0.01636273 0.088425376 -0.007877131 -0.061326254 0.049389813 0.013350367 0.032136917
0.011838411 0.058783982 -0.056012075 -0.09435806 0.029400365 0.06791687 -0.007393691 -0.05452258
0.009634041 -0.025465667 0.057805825 0.056607418 0.04706997 0.1621896 0.04906254 0.02130263
0.006540455 0.011758414 0.08658261 0.15320402 -0.10041106 -0.04932042 -0.053252075 0.0423215
0.08738335 -0.06807514 0.08937155 -0.004049026 -0.064992696 -0.06959142 -0.01286401 -0.0934534
-0.03178124 0.030848764 0.011345149 0.07848774 0.0518527 -0.08493166 -0.0129128285 -0.06173586
0.057488732 -0.012715144 -0.0848532 0.02408893 0.049487278 0.0025270726 -0.079311945 0.102467015
0.064106405 -0.09186975 -0.023072252 -0.05225455 0.0147621995 -0.03562602 0.044583913 0.007311608
0.014159895 -0.014013524 -0.0493433 -0.0240368 0.075920545 0.016124683 -0.026221244 0.0032178601
0.025706911 -0.005748232 0.0496374 0.025858685 0.01281137 -0.053538356 -0.1376722 -0.11518925
0.026511207 0.02647829 0.041554477 0.011344989 0.02279165 0.031533934 -0.04699656 0.013557011
-0.0033927353 0.012343372 0.03710124 -0.16592062 0.065674014 -0.096477725 0.14401282 0.0037045812
0.027062446 -0.0818351 0.005454481 -0.04289297 -0.039595153 0.011143368 0.06036407 -0.057360865
0.0808518 -0.012305987 0.031372037 0.05325904 -0.05383149 -0.01294238 0.029787906 0.049119838
0.016197985 0.022242747 -0.020081677 -0.071821235 -0.075676136 0.02731388 -0.06608329 0.063704364
-0.0175978 0.033304792 -0.020050773 -0.015066015 0.048466075 0.060352955 0.10467475 -0.024425268
0.04141948 -0.0072691776 0.08195056 0.03581854 0.14604604 0.09482615 -0.014681026 -0.08001388
0.089115515 -0.05567062 0.07541019 0.018347444 -0.09948727 -0.0007761429 0.008221239 -0.102510236
0.03727488 -0.003996351 0.09659166 -0.042211004 -0.004912262 -0.02669929 -0.025045691 -0.067017324
-0.023235735 0.0476356 0.02839901 0.02475657 -0.017668232 0.0058352053 0.049930606 -0.03400255
-0.07911126 0.01298473 0.048361126 0.06268498 0.03474518 -0.03847717 0.044776455 -0.040415667
0.0020392842 -0.007336677 0.04131204 -0.028482834 0.059863996 0.035672996 -0.047671713 -0.0049085626
-0.08792166 0.016515711 0.045748234 -0.024088722 0.032656226 -0.094298474 0.034654733 -0.042402558
0.015464286 0.04426079 0.066254504 -0.099923044 0.01863506 0.09956861 0.0413891 0.06375815
0.10019881 0.065367386 -0.038110882 -0.022138134 -0.10167467 0.06317938 -0.042408474 -0.0007620724

base_model.model.transformer.h.10.attn.c_attn.lora_B.weight f4 [2304, 4]
00000000: ed2b cfbd 7b04 9cbc 3047 b0bd fd2a dcbd
00000010: 21cd 7fbb 3690 91bc 490d c5bd e741 bdbd
00000020: 5744 873d 95f6 963d daa1 323d f53a 8b3d
00000030: a0bc 1abd d4a3 08bd 48ed 77bd 121c a9bd
00000040: 9ccc 523a 5be7 85bc e2f9 85bc f7b3 babd
00000050: 2b32 94bc 58ba 89bb dba1 54bd b362 78bd
00000060: 576a 5fbd a945 6abd 3488 13be d0df 16be
00000070: 3fa7 e23c e138 9f3d 4111 4a3c 84c9 233d
00000080: e1b8 85bd ed6c 3fbd c787 43bb e0fb b13c
00000090: 6e0f 24bd cf3e 7ebd e3e6 733b 40df 77bc
000000a0: 2cb5 113d 9eb0 b53c a862 073e 6c12 073e
000000b0: dbc9 c4bc 49a8 bcbc 34da 60bd bae2 4bbd
000000c0: 0538 fc3c 6041 cd3b 1061 f03b 4acb 82bc
000000d0: 0708 6dbc a4bf 7ebd a74c 3ebc a61e babc
000000e0: 4c48 82bc 62fa 1fbd a7ca e7bd 672d c8bd
000000f0: 66a2 0a3d 1326 a73d e715 983d 239c 8b3d
00000100: 301f df3d 105f 1a3e 1f87 ad3d aa8e eb3d
00000110: 42eb 06bd a59a 3fbd 12fa a8bd 9c10 50bd
00000120: 186a 063c e77d 8a3b 9830 1a3d 56d4 cd3c
00000130: 69e0 a6bd 2e74 f2bd 9e3d 8ebd 7857 b1bd
00000140: f228 2b3b 2d30 0c3d be2b af3d 492f 953d
00000150: 91a5 463c 048d a63c 8c92 1fbd 17df 85bd
00000160: e757 da3c b4d3 783d 0081 9a3d cbdf 6a3d
00000170: c9a4 383c 5c7a 313d 7430 343e dfbb 3a3e
00000180: 04d0 933d 48f2 023e 551f 423e b863 543e
00000190: 3fea 26bd bd19 e8bc 82cc 833b 5dbb 003d
000001a0: 3afc dfbd 8802 8dbd a9a3 9cbd 4488 5bbd
000001b0: efdb 8cbd 6bcf 72bd 6d88 84bd 4f0a b5bc
000001c0: 604f 103b f4d9 a43c 2c9c 1ebe b014 28be
000001d0: e84f dbbc 6fdb a9bc 4692 0c3d df8c 283d
000001e0: bf85 b3ba a7cb f6bc e118 803c 4574 c13d
000001f0: 9630 113d 4075 3e3d 1356 cd3d 4c8e fe3d
00000200: e48c 183e 89ea 303e ca72 2c3e 254f 4b3e
00000210: 7433 bf3c 3e7c 1e3d 418f b53d 3d9b 953d
00000220: e73f 41bd 0c3c d1bc 9c39 983d 4ab2 c53d
00000230: bc53 98bc 3046 91bc 0149 f7bb 9fd6 6bbc
00000240: ec51 75bb 51e3 323d 6523 30bb dbe9 5d3c
00000250: 2b2d cfbd e1a1 00be a68f 01bd 1bdf b6bc
00000260: 6983 88bc 9cb9 abbc 66d2 b8bd 8f1a 01be
00000270: d389 c6bd 2f2a 0fbe 3c64 5bbd 10c1 2dbd
00000280: 4714 8f37 6b2a 0a3c b37d 953d e4d4 9c3d
00000290: 0968 f7bc 91f0 20bb 746b 8cbb 30fe d83b
000002a0: 3ded 903c 4fe4 6b3c 9ae0 b73d 93e4 113e
000002b0: 02d6 50bc aff0 473c 42f8 c2bc 1171 1dbd
000002c0: 0fdb 2fbd c831 79bd de22 c6bc c5f6 91bc
000002d0: df3b 4f3d 04e4 a03c 0bbf bebc ed38 3cbc
000002e0: 374d ca3c 23d1 39bd eab3 0b3d b8c8 f03c
000002f0: 43d2 1dbd 84c8 7fbd 07e3 0dbe 4c02 34be
00000300: d206 95bd 4d52 bcbd d188 38bd 1d1a b2bd
00000310: f3cc d7bc a675 f4ba 95f3 183d 59c7 803d
00000320: cade 5c3d 7846 c03d 2828 603e fad5 623e
00000330: e0dc 573d 49ca 493d 8764 8a3d 2338 f73d
00000340: 8921 8b3d 8b4d 663d fb17 cc3d 2421 033e
00000350: e8a4 243d bfc6 db3c f854 ff3c fb7b 863d
00000360: 7709 853a d7ac a239 d492 30be 8a58 2fbe
00000370: 56a1 383d 944d 4e3c 161b 873c 656d a9bc
00000380: 0a43 a43d 0336 b43d 6bbe 233e 50c5 4c3e
00000390: 7075 023c 861d 4ebd e555 fbbd 4d46 2bbe
000003a0: 3521 ce3d d49f a53d 97a5 f73d f69e 373e
000003b0: 72d9 263d 323e f13c f33e 49bd 66e7 8abd
000003c0: 8dce be3d 3df2 493e 6a96 513e 976a 883e
000003d0: 49be 8e3c c9c8 c23c e005 ae3d 72ac 7f3d
000003e0: 4242 bfbc c99f e4bc b8d0 283e 1fdd 243e
000003f0: e4ef 153d 4fa5 263c b06e 4cbd 8ffc aabd
-0.101158 -0.019045105 -0.08607328 -0.10750387 -0.0039032178 -0.01776896 -0.096216746 -0.092410855
0.06604832 0.073712505 0.043611385 0.067983545 -0.037777543 -0.033359364 -0.060529023 -0.08257307
0.00080413534 -0.01634567 -0.016354505 -0.09116357 -0.018090328 -0.004203122 -0.05191217 -0.060641002
-0.054544773 -0.05719534 -0.14407426 -0.14733815 0.02766764 0.07774521 0.012333215 0.039987102
-0.065294035 -0.04673474 -0.0029835568 0.021726549 -0.040053777 -0.062071618 0.0037216477 -0.015128911
0.03557317 0.022178944 0.13221228 0.13190621 -0.024022033 -0.023029463 -0.054895595 -0.04977677
0.030788431 0.006263897 0.0073357895 -0.015966076 -0.014467246 -0.06219448 -0.011614955 -0.022719692
-0.015903614 -0.039057143 -0.1131795 -0.09774285 0.03384628 0.08161559 0.074260525 0.0681689
0.108946204 0.15075326 0.08473038 0.115018204 -0.032939203 -0.04677834 -0.08250822 -0.05079709
0.008204006 0.0042264345 0.037644 0.025125664 -0.081482716 -0.11838566 -0.06945346 -0.086592615
0.0026116935 0.03422563 0.08553265 0.072844096 0.012124435 0.020330913 -0.038958117 -0.06536692
0.026653243 0.06074877 0.07544136 0.05734233 0.011269757 0.04332958 0.17596608 0.1823573
0.0721741 0.12787735 0.18957265 0.20741165 -0.04075074 -0.028332585 0.004022182 0.031428684
-0.1093678 -0.068852484 -0.07648403 -0.05359675 -0.068778865 -0.05927984 -0.06471334 -0.022099642
0.0022019967 0.02012346 -0.15489262 -0.16414142 -0.0267715 -0.020734517 0.034319185 0.04114997
-0.0013696476 -0.030126406 0.015636863 0.09446005 0.035446726 0.046498537 0.10026183 0.12429485
0.14897496 0.17276968 0.16840664 0.1985441 0.023339964 0.038692705 0.08865214 0.07305
-0.047180083 -0.025541328 0.07432863 0.096531466 -0.018594615 -0.017733663 -0.0075465445 -0.014394431
-0.0037432862 0.043673817 -0.0026876566 0.013544525 -0.10116037 -0.12561752 -0.031631134 -0.022323182
-0.016664224 -0.020962529 -0.09024505 -0.12607788 -0.09694257 -0.13980936 -0.053562388 -0.042420447
1.705637e-05 0.008432965 0.07299366 0.07657793 -0.030200975 -0.0024557451 -0.0042852703 0.0066220984
0.017691249 0.014397695 0.08978386 0.1424735 -0.012746336 0.0122033795 -0.02380002 -0.038437907
-0.04293352 -0.06083849 -0.024186548 -0.017817864 0.050594207 0.019639976 -0.023284456 -0.011488182
0.024695022 -0.045365464 0.034107126 0.029392585 -0.0385306 -0.062447086 -0.13856135 -0.17579001
-0.072766915 -0.09195385 -0.045052353 -0.08696387 -0.026342845 -0.0018650785 0.037341673 0.062880225
0.053923406 0.09388441 0.21890318 0.22151938 0.052700877 0.04926518 0.06757455 0.12071254
0.06793506 0.056226294 0.099655114 0.12805611 0.04019633 0.026828168 0.031168446 0.06566616
0.0010149915 0.00031027824 -0.1724351 -0.17123619 0.045075737 0.012591738 0.016492408 -0.020682046
0.08020599 0.087993644 0.15990607 0.19997144 0.00796257 -0.050321124 -0.122722425 -0.16726036
0.100649275 0.080871254 0.12092131 0.17931733 0.040734716 0.029448602 -0.0491323 -0.06782417
0.0931674 0.19721313 0.20467535 0.26643822 0.01742472 0.023777382 0.08497214 0.062420316
-0.023347024 -0.027908223 0.1648587 0.16099976 0.03660573 0.010171249 -0.049910247 -0.08348953
