model/classification_v1/adapter_model.safetensors (safetensors, 599080 bytes, 25 tensors)

base_model.model.score.weight f4 [2, 768]
00000000: c711 12bd 7c62 dfbc c2f2 de3c 2778 d23d
00000010: 82fe afbc d6e2 96bc 3c7f 74ba 931a 98bc
00000020: e214 573d 968c 123c 2e5e fabc 08a8 793c
00000030: 1893 b53c 4049 093c 393e a1bc 17be 3fbd
00000040: 5efb 22bd e538 423d 519f 833c 4897 4e3d
00000050: bf14 87bc 869a 0abd 907d 483d b7a6 abbb
00000060: 96d6 183b 323b 893c a4d2 98bc a5d6 49bd
00000070: d4e2 10bc 355a 3e3d 24fa 9dbc e881 f13c
00000080: 7a57 793d e108 a13c edf8 cfbb d6eb 03bd
00000090: ba49 cf3c be9d ab3c ebaa dfbc fdf6 adbc
000000a0: 2101 a5bc 806f 923d 588d 923c 643f 933b
000000b0: 4868 573c 708d edbc 6eaa 25bc 88fc 14bd
000000c0: a8c1 97bc ff4e cbbc 041f f03c 4da3 a5bc
000000d0: 6b49 22bd 2d1e 2dbc 3848 09bd 0098 74bc
000000e0: 7238 6bbc a332 d6bb 313a 62bc 7ab7 193d
000000f0: 462c 863d 11b8 373b c652 c63c baa3 fabb
00000100: 4964 fd3d 8c25 b1bb eb1a c8bb 032a 643c
00000110: 6819 0a3d ecdd 77bc f7d2 e13b f3db 153a
00000120: 1e04 88bd dee7 6b3d 332a 0a3c e4b5 03bd
00000130: db1a 203c 15e3 103d c474 39bc ac8d 68bd
00000140: a403 6d3c 049c 7dbc d1de 8dbc c074 8a3c
00000150: 5391 0f3c 4ced b5bc de5a 25bd dd37 f93d
00000160: 9caa 7fbd ebe8 45bd 6a86 2a3d d5b0 3d3d
00000170: beb9 843c b040 b43c deac 24bd 2997 03bd
00000180: 4208 2ebd 10a8 c3bb 8387 febb 4a93 2bbd
00000190: a803 1ebd d62c 303d e3f9 07bd 00c7 ecbc
000001a0: e0a7 e4bc c5bc 29bd 0ed1 c4bc 4b36 a6bc
000001b0: 2b8c b73c 97a6 893d 2b41 77bb b45a 1cbd
000001c0: 7b09 f6bb eab8 8c3c e801 1c3d 79b7 143d
000001d0: 02ab c33c 008d a8bd 5f4c 8b3d 07fc d13c
000001e0: 9475 4f3c e137 28bd fe31 b039 93bb e2bc
000001f0: dcb3 8c3b 0458 cc3c e826 e83b ce6d 31bd
00000200: 0913 cdbc cbd4 bb3b 4306 b3bc efae fdbc
00000210: fb3b 8bbc 8c7d 51bc aa37 dd3c 9696 60bd
00000220: d962 49bc 2461 713d 4d48 febd eeb6 30bd
00000230: 3063 f5bb eb05 543c bdb9 523d fd01 5abc
00000240: 2cc3 a8bc b024 9ebc 93df 48bd d0d3 41bc
00000250: b43a d33c bf9f 2c3d 35a1 5a3c 4704 ab3c
00000260: 5af8 623c df1e b03c 736a 363b 750c 8c3c
00000270: dac9 893c 2352 933a b218 26bd cc20 2b3d
00000280: a7c0 02bd 01e1 fa3b 86b7 ff39 f40d f13c
00000290: 537a 3c3c 3c92 423c edec fd3c 0726 a63d
000002a0: 3215 26bc c6f5 493d ee5a 123d 1a28 71bc
000002b0: 8408 203b 4057 c4bc fc90 1dbc 4c70 c13c
000002c0: 86bf 543d 2a94 9abc cb3b 10bc 24f3 28bb
000002d0: 43eb 363c 28a6 433d 6fb7 203c 7831 81bc
000002e0: a0e1 04bb 00b6 8a3b 2cf2 2b3d 5d47 9a3c
000002f0: 02ec 843c 34e4 0b3d 25df 5d3d 162a ed3b
00000300: 49e6 313d 240c 43bc 40cb 6ebd 9f1b d13c
00000310: 9dbf 6f3c 7a70 903b db3f 0cba 5afa 043c
00000320: 5791 cbbb 3c4c c0bc 4c05 9e3c 55a4 5e3b
00000330: cc4b eabc af98 90bd a458 f4bc 0d86 223d
00000340: 921f 34bd 6408 97bc 53a9 06bb 7192 8cbc
00000350: 0a9d 57bc 75da 9dbc c0e0 aa3c a200 7abd
00000360: 85e3 01bd 6ff4 b6bc 799d bb3b bda9 a1bc
00000370: 37d5 a0bc 2eee c83b 758d 5b3c c716 8b3d
00000380: 6eeb 99bc ffca bbbc e332 013c 6f3f 053d
00000390: c9dc 703c 60fe cbbc 2b1f 97bc 2f5e 9cbb
000003a0: c9b0 bebc 0288 463c 0e5d 113d 7d57 833d
000003b0: 86ad 973d ddf9 cdbc ec0d 7ebd baa3 433d
000003c0: 6c13 c7bc 55ea 9dbd b740 de3c db08 593a
000003d0: cb59 3fbc 9e8d 25bd 3acd f83c e5fe 87bc
000003e0: d7d5 453c cffb 153d 0314 833c cb04 debc
000003f0: fc46 a63c d4bd 4b39 f543 cd3c 73bb db3b
-0.035661485 -0.02726864 0.027215365 0.102768235 -0.021483663 -0.01841871 -0.0009326821 -0.01856736
0.05251015 0.008944651 -0.030562486 0.015237816 0.022164866 0.008379281 -0.01968299 -0.046812143
-0.039790504 0.04741754 0.016067179 0.05043724 -0.016489385 -0.03383877 0.04894787 -0.00523838
0.0023321263 0.01675186 -0.018655129 -0.049276967 -0.008843143 0.046472747 -0.019284315 0.02948089
0.06087444 0.019657554 -0.006346813 -0.032207333 0.02530371 0.02094924 -0.02730318 -0.021235937
-0.02014214 0.07150173 0.017889664 0.0044936407 0.013147421 -0.028998107 -0.010111434 -0.036373645
-0.01852496 -0.024817942 0.029311664 -0.02021947 -0.039620798 -0.0105662765 -0.03351614 -0.014928818
-0.014356719 -0.006536798 -0.013807819 0.037528493 0.06551413 0.0028033296 0.024209391 -0.0076489123
0.123726435 -0.0054060873 -0.0061067245 0.013926032 0.033715636 -0.015128594 0.006891604 0.0005716674
-0.0664141 0.057594173 0.008432913 -0.032155886 0.009772028 0.035372812 -0.011319343 -0.056775734
0.0144662 -0.015479092 -0.017318161 0.016901374 0.008762675 -0.022207879 -0.04036986 0.12168858
-0.062418565 -0.04831783 0.041632093 0.04631122 0.01620185 0.022003502 -0.04020392 -0.03212658
-0.042488344 -0.0059709623 -0.007767619 -0.041888513 -0.038577706 0.04301151 -0.033197295 -0.028903484
-0.02791208 -0.04143979 -0.024025466 -0.02028956 0.022405704 0.067212276 -0.0037728052 -0.03817244
-0.0075084544 0.017178018 0.038087755 0.036307786 0.023885254 -0.082300186 0.06801676 0.025632871
0.01266231 -0.041068915 0.00033606583 -0.027677333 0.004293902 0.024944313 0.007084716 -0.04331761
-0.02503349 0.005732154 -0.021853572 -0.030967204 -0.016996374 -0.01278628 0.027004082 -0.05483111
-0.0122916335 0.05893053 -0.12416134 -0.043143205 -0.0074886307 0.012940864 0.051446665 -0.013306138
-0.020600878 -0.019304603 -0.049041342 -0.011830285 0.025784828 0.042144533 0.013344099 0.020876063
0.013853157 0.021499095 0.0027834445 0.017095784 0.016819883 0.0011239689 -0.040550895 0.041779324
-0.03192201 0.007656217 0.00048774126 0.029425599 0.011503774 0.011875685 0.030996764 0.08112722
-0.010136889 0.049306653 0.03573125 -0.014719034 0.0024419138 -0.023967385 -0.0096170865 0.023613118
0.051940463 -0.018869478 -0.008803318 -0.0025779689 0.011164489 0.04776588 0.009809359 -0.015770659
-0.0020276085 0.004233122 0.041979 0.018832857 0.016225819 0.03415318 0.054167885 0.007237683
0.043432508 -0.01190475 -0.058299303 0.025525866 0.0146330865 0.0044079395 -0.00053500914 0.008116329
-0.006212394 -0.023473851 0.019289635 0.0033972461 -0.028600596 -0.07060372 -0.029827423 0.039678622
-0.04397542 -0.018436618 -0.0020547702 -0.017159672 -0.01316 -0.019269207 0.020859122 -0.06103576
-0.03171112 -0.022333352 0.0057255593 -0.019734258 -0.019632919 0.006131909 0.013400425 0.06791454
-0.01878902 -0.022923945 0.0078856675 0.032531198 0.014701077 -0.024901569 -0.01844748 -0.0047719697
-0.023277657 0.012117388 0.035489134 0.064131714 0.07406144 -0.025143558 -0.062024996 0.047763564
-0.024301253 -0.07710711 0.027130468 0.00082792126 -0.011679123 -0.04041826 0.030371297 -0.016601035
0.012074909 0.036617097 0.016000753 -0.027101895 0.02029752 0.00019430305 0.025056819 0.0067056953

base_model.model.transformer.h.0.attn.c_attn.lora_A.weight f4 [4, 768]
00000000: cccf 2b3d e2dd 873d 6ed0 f8bd 598a b1bc
00000010: 96fe cd3d 2594 88bd 5a3b 87bd 8934 51bb
00000020: 935b a13d cdee bb3d 6262 333d 9f54 dc3d
00000030: 2172 86bb f2f9 e13c ce5d 153c 93af ebbc
00000040: 8d68 f5bd aaf7 7c3d 9f36 60be 293d 903c
00000050: 6ac7 a0bd 690c 91bd 4247 d03c ea3b 0cbe
00000060: 72d2 23bd bd51 df3b c685 44bd 4c0f 5abc
00000070: dca2 8b3d dd4e 1a3e 1b8e d9bd 9c90 403d
00000080: 950d 98bd 63be e73d 8ff7 d23d 06b3 12be
00000090: c3d0 f6bc b046 70bd 3073 9dbd 34c5 ac3d
000000a0: d60a efbd 0507 d2bd 3885 af3c abc4 8c3d
000000b0: 2e32 98bb 8a02 c0bd 97f6 423d 6385 3d3c
000000c0: ed7e 37bd 0696 053e f642 8fbd fe10 febc
000000d0: ff36 07bb fe16 de3d f057 0f3d 0d0f ed3c
000000e0: 3886 1ebd c003 18be a67d 89bc c1e4 8ebd
000000f0: fce6 26be c0a4 093d f2d2 173d a6bd 7dbc
00000100: d7ed 13be d05a 3ebb dea4 813d 90d1 a63d
00000110: 9470 6d3d a395 703c 3abc 073d 65c2 76bc
00000120: eb05 dabd 000c 00bd 9885 febd fa87 d53c
00000130: b97f 9a3d a5cd 493e 7367 433e 099c e6bb
00000140: 679b 943d 3b94 333b 6a93 8d3d 0a25 37bd
00000150: be89 2c3d a3fd 03be 4e40 a53d 1ecf 26be
00000160: 413a 5dbd 168e be3d 13bf 0dbd b784 5e3d
00000170: e1b8 97bd 415f 5fbe f696 f63d 8f58 bcbd
00000180: 19ab 233d 3caa 8a3d eb1d a7bd 96cb 713d
00000190: 423b abbd 35ac 363c 4618 d83d 0bcd d9bd
000001a0: 96a5 063e 2eec 8cbd 3f31 983c d9da 6ebb
000001b0: 6ab4 04bd 1b2a bfbd 7c40 ce3d 507c 36bc
000001c0: 97e4 1cbe 975b 3fbd 1f45 6e3b 8b59 72be
000001d0: 42ec 83bd b6d1 623e 0a6a 46bd b213 8f3c
000001e0: 474f b7bd b541 83bd 7d38 87bd 417f e4bc
000001f0: f45a c73d ace7 80bb 8c46 1abe 57c8 923c
00000200: 4c85 6abc 9d38 d63c 8b19 963b 4ec2 cd3c
00000210: a986 e2bd 6e67 d53c 319b b4bd facb 98bd
00000220: 0db6 aa3d 51c6 813d a3d2 8e3d 439e 983a
00000230: 60c8 9cbc a769 133d 55a3 0b3e 7f61 4a3d
00000240: 5ebf f23c 357b b0bd 5598 393d 5666 51bd
00000250: e482 ec3b e952 91bc bd9f 413d e9f5 f93d
00000260: 1636 7939 b29c 55bd 0eaa 05be 363f 60bc
00000270: d845 c13d 8b40 2ebd 8fa6 283d 9aaf 8cbc
00000280: 3e0f 2fbe 9a1d 623d 3e71 02bd 0b27 f0bc
00000290: f9b4 b63d 40ca d43c 0022 99bd 8707 a53d
000002a0: 69f4 25bd 0f9c 6b3d 4e4a f23d fcef c0bd
000002b0: 289e c83d b96c 903d 3bd7 78bd 9e8e fc3d
000002c0: f7bf 35bc 1c32 9ebd d773 a53d ddbe 80bd
000002d0: bc3b d2bd 1b87 0e3e b7fd 8dbb 98c5 ed3d
000002e0: 9155 bb3d 79cb 303e ede6 b73d 6c02 6f3c
000002f0: 511e 1e3e 15fa 4d3d 76dd 11be 0c94 373d
00000300: 955c ed3d 2111 69bd 43b1 ac3c d45f 1e3e
00000310: a021 25bd 31f9 2ebe 525c 53bd 3cb7 983d
00000320: 26d9 213e 6e83 d8bc 278d 513c c947 e0bc
00000330: a634 843d 4b37 3fbe 8fd0 e53c f6f1 a63d
00000340: 9cba 5e3d c313 79be 4426 a8bd e720 7a3d
00000350: 7992 8fbd 6f07 b5bd b488 5abe ea18 943c
00000360: b6a2 05be cbbc b5bc 1c6c 93bd 2adb a23b
00000370: a8d0 2dbe 999f a03c ea8a 8b3d 8545 b9bd
00000380: 0158 013d b25e 87bd 8ebd 653d b15d 45bd
00000390: b3a3 ecbd 0e61 66bd 4fcd a23d 033b 0ebd
000003a0: 9e97 40bd b425 eebd 2ce3 a1bd 7f13 373e
000003b0: 6863 883c 8124 383d cb89 813c 5766 ddbc
000003c0: 598f 6f3c 41e8 863d a582 303d f612 183d
000003d0: 0389 d7bd ad94 33bd 47fc 08bd 5cc3 1abe
000003e0: cd8c 32be adf5 bc3c fef9 123d 34e2 efbc
000003f0: 7b91 623d 55c7 183d a8f6 433d ac8c e3bc
0.041946217 0.06634118 -0.1214913 -0.021672415 0.10058324 -0.06668881 -0.06603117 -0.0031922183
0.078787945 0.09176407 0.043794997 0.10758328 -0.0041029607 0.027585004 0.009116603 -0.028770244
-0.11982832 0.06175963 -0.21895836 0.017607288 -0.07850535 -0.07082445 0.025424603 -0.1369473
-0.03999562 0.006815164 -0.04797914 -0.013309311 0.06818172 0.15069146 -0.106228076 0.04701291
-0.074244656 0.1131561 0.10301124 -0.14326105 -0.030128842 -0.058661163 -0.07687986 0.08436051
-0.11671989 -0.10255245 0.021425828 0.06873449 -0.0046446538 -0.09375484 0.047598448 0.011567446
-0.04479878 0.1304551 -0.06995194 -0.031013962 -0.0020632145 0.10844229 0.034995973 0.02893784
-0.03870222 -0.1484518 -0.016783547 -0.06977225 -0.16299051 0.033604383 0.037066408 -0.01548711
-0.14446197 -0.0029045828 0.06330274 0.081454396 0.05796869 0.014684114 0.03313849 -0.015060996
-0.1064566 -0.031261444 -0.12427825 0.026065815 0.075438924 0.19707353 0.19082431 -0.007037644
0.07256203 0.0027401585 0.069128826 -0.044713058 0.04212355 -0.12889723 0.08068906 -0.16289946
-0.054010633 0.093044445 -0.03460605 0.054325785 -0.0740831 -0.2181368 0.12040512 -0.09196579
0.039958093 0.06770751 -0.08160003 0.059032045 -0.08360912 0.011149456 0.10551505 -0.10634812
0.13149104 -0.06880985 0.01857817 -0.0036446361 -0.03239862 -0.09334203 0.10070893 -0.011138037
-0.15321575 -0.046718206 0.0036357117 -0.2366697 -0.06441547 0.22150311 -0.04844097 0.017465446
-0.08950668 -0.06409017 -0.06602571 -0.02789271 0.09734145 -0.0039338674 -0.15065974 0.017917795
-0.014314007 0.026150042 0.0045806817 0.025117066 -0.11060841 0.026050296 -0.08818663 -0.074607804
0.08335505 0.06336654 0.069737695 0.0011643845 -0.019138515 0.03598943 0.13636525 0.049409386
0.029632267 -0.0861725 0.04531129 -0.051122986 0.007217752 -0.01773973 0.04727148 0.12205107
0.00023766639 -0.05215139 -0.13053152 -0.013686946 0.0943715 -0.04254202 0.041174468 -0.017173577
-0.17095658 0.05520401 -0.031846277 -0.029315492 0.089212365 0.025975347 -0.07477188 0.08058076
-0.04051629 0.057521876 0.11830579 -0.094207734 0.09795791 0.07051987 -0.060752135 0.123318896
-0.011093131 -0.07724401 0.08078735 -0.06286404 -0.102653 0.13918726 -0.0043332237 0.11609954
0.0914718 0.17265119 0.089795925 0.01458798 0.15441252 0.050287325 -0.14244637 0.044818923
0.11589924 -0.0569011 0.021080619 0.15466243 -0.04031527 -0.17087246 -0.051601715 0.07456824
0.15805492 -0.026429858 0.012790001 -0.02737798 0.064553544 -0.18673436 0.02805355 0.08151619
0.054377183 -0.24323945 -0.082104236 0.061066534 -0.07010359 -0.088393085 -0.2134121 0.018078286
-0.1305035 -0.02218475 -0.071983546 0.004969974 -0.16974127 0.019607352 0.06813605 -0.09046463
0.031578068 -0.066098586 0.056088977 -0.048185054 -0.11554661 -0.056244902 0.07949316 -0.034724247
-0.047019593 -0.11628285 -0.07904658 0.17878531 0.016648963 0.044956688 0.015812775 -0.027026339
0.014621579 0.06587268 0.043093342 0.037127458 -0.1052418 -0.04384296 -0.033443715 -0.15113586
-0.17436524 0.023066366 0.035882942 -0.029282667 0.055314522 0.037299473 0.04784265 -0.027777039

base_model.model.transformer.h.0.attn.c_attn.lora_B.weight f4 [2304, 4]
00000000: 6fbe 69bd b695 013d 45b0 b9bd beb4 b03d
00000010: 804b a2bd 44ac c8bd c2b0 363d 7afd e73c
00000020: 81b6 d13c c201 de3d b1f5 d4bb 78d8 95bd
00000030: 686a aebd 1c01 0bbe 02ed 5a3b 6f69 713d
00000040: ae74 b5bd 57c5 a4bd 2311 a0bd 1f27 d43d
00000050: a67c 19bd bda8 df3d 71a0 8bbd 0e03 3e3e
00000060: feaf f83d 2b3c be3d 9de7 ad3d c235 0cbe
00000070: 6b57 0abe 12e9 fcbd 2aa3 6ebd 3982 17bd
00000080: b198 3c3c c0bf 943c 7ade 24bd d0eb 3f3e
00000090: 58a3 a1bb 3775 483d 8908 fa3d 1cb6 ebbb
000000a0: 4fd2 c23c 90b8 9f3c f5b4 75bc d313 00bd
000000b0: 8f8a 0abd 2cce 8dbd bdf6 c93c 16b7 413d
000000c0: 1603 2d3e 8f4b 083d 37ba 863d 32d4 a3bd
000000d0: d48a f6bd e823 2cbe 4a8c 593c d41e 18bc
000000e0: 8db8 903d 432d ccbd 946d 0e3e 4a26 0c3d
000000f0: 8c2f c5bd d4b3 dabd 49c7 04bd 836c df3d
00000100: 5918 1bbe e22e d5bd 0ee1 95bd e7d4 c23d
00000110: a27a 383b ebc2 b9bd 7c84 a83d 82d7 05be
00000120: 779f 0bbd c17a b33b 96d9 c13d dec0 11bd
00000130: 85a0 b33d 39a2 413e a4c3 58bd 416d 5a3c
00000140: d26f a2bd 69a3 18be 38d4 53bc 71b0 7d3d
00000150: 2bdc 1b3d 8f8d 2f3d 4799 f13d f116 c0bd
00000160: a2a5 2bbe f631 0f3d b035 1cbe b167 003e
00000170: 1c6d 043d 9740 c83d b753 82bd 4edf c03c
00000180: c3de fabd 8f7d 613d 0b22 4abd de69 6e3c
00000190: 5850 e13d 7f1b ba3d 202a 683c 8f4b 07bb
000001a0: c7de 7d3d 98c7 d4bc 179a 263d 1027 d83c
000001b0: 8fa9 933d 5484 993d 468e 253d ca2a 8abd
000001c0: b2cb 0e3d 6832 bc3d e9ec 33bb dd8d 81bd
000001d0: bbc8 0dbd 8d77 363c 85a2 4b3d fda9 4b3c
000001e0: 678a d5bc 72fe 5e3e 2958 0fbe e534 113d
000001f0: da8f 5b3c 2b06 2bbd e2c7 673d 1598 81bc
00000200: 7666 49bd 953c 9d3b 8901 e1bc 825c 80bd
00000210: 799f 40bd 42e6 883c 3dda 0abe 53b6 dbbc
00000220: 96f8 113c 7b31 adbd 1019 083e 09c0 8bbd
00000230: 59c0 f03d aa02 113e 2225 3c3d be01 b6bd
00000240: 996a a23c 49da e3bd 7971 013d d742 e3bc
00000250: fe51 6ebc 1aae b9bd ad6a ad3d 0da2 ccbc
00000260: 4699 0abd 8372 7e3d 85e7 46bd 3fec d93d
00000270: 68c6 3abc eb6c 213d ddbc adbc f668 38bd
00000280: 4b73 e9bd 9d54 4bbe 643b 193d 3b9d c53c
00000290: 4c68 93bc 2ffb bfbd 8773 453d fd7b 56be
000002a0: b068 883b 4729 2dbe c06f 993c 1bb8 a0bd
000002b0: c41a f33d 35b2 553e dfa4 113d c0d1 963c
000002c0: abbd 55bd 2aab 23be cbf5 6dbb e8ca a03c
000002d0: 092c 863c 52ab 17be e349 083e 6798 48bd
000002e0: fbff eb3d 4fe8 0b3d 595c b23c ed37 49bd
000002f0: 63a1 5cbd e158 5d3d d5d9 58bd 81cd c93d
00000300: 11c8 623d 459a 1e3e 89c0 8abd ac12 b33d
00000310: 24c7 653d 590c 9a3c 35e3 403a cfb4 493d
00000320: 7cb9 6abe 68da 36bd 2aef 15be a3c2 b93d
00000330: f076 07be 179e d2bd bf31 a3bd a656 e23d
00000340: 7bcd 843d 1b5a 2ebc ca36 1b3d 2f3d 4bbd
00000350: 17d4 143d 49a7 e73c 3b86 c539 7a68 d9bc
00000360: d1f0 d53d 2e8a 2d3b 96f8 853d e210 10bd
00000370: 73a8 94bd c6b2 c73d 71d8 83bb ba3a a2bd
00000380: af83 cd3b 3140 61bd 4d3d dbbb f07a edbc
00000390: 3da9 233e 8782 26bd 2e8c 193e 99f4 18be
000003a0: 53fa b9bc 47eb 62be dbf3 013e c4ef f7bc
000003b0: 1a73 b53c 3562 1bbd d6b1 4ebb b413 40bd
000003c0: ea1e 8abd 588f e8bd 5b95 1ebd 3f8e d5bb
000003d0: 35f6 c3bd 80d6 4cbe 2940 113c 9c4f 16bd
000003e0: 9c6b 4abc 53e4 ce3d ea34 66bd 6d60 f73d
000003f0: 08a3 aa3d d3b3 d13d 5f38 ba3d c58e 70bd
-0.057066377 0.031636916 -0.09066824 0.08628224 -0.07924557 -0.09798482 0.044602163 0.02831911
0.02559972 0.10840179 -0.0064990153 -0.07316679 -0.08516389 -0.13574642 0.0033405428 0.05893844
-0.088601455 -0.08045452 -0.078157686 0.10359024 -0.03747239 0.10920856 -0.06817711 0.18555853
0.12142943 0.0928882 0.08491442 -0.13692382 -0.1350991 -0.12349142 -0.058261074 -0.036989424
0.011511014 0.01815784 -0.040251233 0.18742299 -0.004932802 0.04893991 0.12208659 -0.00719334
0.023781924 0.019497186 -0.014996757 -0.031268906 -0.033823546 -0.0692409 0.024653787 0.047293745
0.16895708 0.033275183 0.065784864 -0.079994574 -0.12038198 -0.16810572 0.013278076 -0.009284694
0.0706645 -0.099695705 0.13908988 0.034216203 -0.096282095 -0.10678831 -0.032416616 0.10909369
-0.15146007 -0.10409333 -0.073183164 0.09513264 0.0028149267 -0.09070381 0.082283944 -0.13070491
-0.034087624 0.00547728 0.09465329 -0.035584323 0.08770851 0.1890954 -0.052920952 0.013331712
-0.07931484 -0.14906086 -0.012929015 0.061935846 0.038051765 0.04285961 0.117968135 -0.09379376
-0.16762403 0.034959756 -0.15254855 0.12539555 0.032330617 0.097779445 -0.063636236 0.02354398
-0.1224952 0.055051383 -0.049348872 0.014551608 0.110016525 0.09087276 0.0141702 -0.0020644402
0.061980035 -0.02597408 0.040674295 0.026385814 0.07210075 0.07495943 0.040418886 -0.067464426
0.034862228 0.09189302 -0.0027454442 -0.063258864 -0.03461526 0.011136902 0.049715538 0.012430665
-0.026066972 0.2177675 -0.13998474 0.035450835 0.013400996 -0.04175393 0.056587107 -0.015819589
-0.04916998 0.0047984817 -0.027466552 -0.062676445 -0.047027085 0.016711358 -0.13559814 -0.026820337
0.008909365 -0.08456703 0.1329081 -0.06823737 0.117554374 0.14161173 0.04593385 -0.08887051
0.01982622 -0.11125619 0.031602357 -0.027741833 -0.014545916 -0.0906641 0.084676124 -0.024979616
-0.03383758 0.062120926 -0.048560638 0.106407635 -0.011399843 0.039410513 -0.021208221 -0.045021974
-0.113989435 -0.19856496 0.037410155 0.024122825 -0.017994069 -0.09374081 0.04820588 -0.20945735
0.0041628703 -0.16910277 0.018730044 -0.07847615 0.118703395 0.20868762 0.035557624 0.018410563
-0.052182835 -0.15983263 -0.0036309834 0.019628003 0.01637842 -0.14811447 0.13309436 -0.048973467
0.11523434 0.034157094 0.02177255 -0.0491256 -0.053864848 0.05403984 -0.052942116 0.0985365
0.05536658 0.15488537 -0.067750044 0.08743796 0.05609812 0.018804716 0.0007358075 0.049244698
-0.22922319 -0.044641882 -0.14642015 0.09070327 -0.13228965 -0.102840595 -0.07968473 0.11051683
0.06484505 -0.0106416 0.037894048 -0.049618896 0.036335077 0.02827801 0.00037674778 -0.026539076
0.10446323 0.0026480067 0.06541555 -0.03517235 -0.07258692 0.09750895 -0.0040236046 -0.079213575
0.0062718014 -0.05499286 -0.006690657 -0.028989285 0.15982528 -0.040651824 0.1499488 -0.14937057
-0.022702372 -0.22160064 0.1269068 -0.030265696 0.022149611 -0.037935454 -0.0031539104 -0.04689379
-0.06744178 -0.11355466 -0.038716655 -0.006517201 -0.09568445 -0.200037 0.008865395 -0.036697015
-0.012354758 0.10102143 -0.056202807 0.12078939 0.08331877 0.10239377 0.09092783 -0.058729906

base_model.model.transformer.h.1.attn.c_attn.lora_A.weight f4 [4, 768]
00000000: ca4c 97bd 4d9e 0b3a c70f b1bb 51d3 233d
00000010: 9a96 60bd 7089 af3c 6b02 c63b 407d d1bd
00000020: fccf 6a3d ef78 6ebd 189a 403d 9435 c43c
00000030: a827 563c 775a f0bd 5256 5d3d a93d 24bd
00000040: aee7 473d 88d3 9b3d f584 283d ab15 0c3d
00000050: 1c11 0b3c 12e6 313b e8cf 933d cd14 673d
00000060: 61a1 883d 6124 403a 825a c8bc 6f1b e0bd
00000070: 832a e53b d8f5 82bd bf71 783d c694 063c
00000080: e2f1 0dbe e423 ffbc 2fa7 42be 0e3c b83d
00000090: e2ba f6bc 8b71 e3ba b7ea e5bc 64d4 20bc
000000a0: 47d9 233b ca4b 45bd 414e 283d 194a 60bd
000000b0: 5179 903c 4a24 e63d 8340 d63c 0c6b 933b
000000c0: b495 6c3d 8af8 7dbd 7530 9abb 1c72 03be
000000d0: 60fc 103d 8e48 14be d9bf c33a e3f5 933d
000000e0: 948c d4bd 75d2 f03c a3b6 2c3d ec8b e03c
000000f0: 0a2c 193d 026f 7abd ea7d 42bd 0a34 853d
00000100: 2205 e83c f7a6 713c 107c d63c ac31 7f3c
00000110: a63b 8d3d c447 183d 2c8d bd3d 2f19 1f3d
00000120: c7d2 3a3d be05 b63d 921f 643d c517 233d
00000130: 0ff9 b73d 2131 05bc c6b4 2dbd eea3 4bbc
00000140: 209e 8dbc c8ba 203b abda 11bd 0e89 33bd
00000150: c5f9 fabc 519b 29bd 0972 e8bc b0f6 9f3d
00000160: 38c6 a33d 3d6a bebc c785 80bd cdb0 26ba
00000170: 9013 873d de53 debb 8720 3ebc 3d97 8f3d
00000180: 3f8b bbbc fd14 dd3c 73da a8bd 4e19 1bbc
00000190: 786b 4f3d 116e 493d a682 8e3d 6abc bfbd
000001a0: 4f36 c83c 196a 7b3c 8e35 4cba 929b afbd
000001b0: 0e80 70bc ce39 27bd 7e6d 91bd 68e7 663c
000001c0: a525 943d cae6 79bd 7437 60bd d8f7 4d3d
000001d0: c6f9 bd3d c9cb a33c 32a7 c13d 6c8e 26bd
000001e0: 5586 bcbd fb8d 71bd 3dd2 e5bb a6b8 9f3d
000001f0: 7c18 da3c e709 ce3c 1d37 1c3d 2942 cebb
00000200: 0551 4a3d ccd4 74bc 589e 28bd 3ddd 833c
00000210: e3f6 f43d 9c35 27bd 2eb9 073d fa73 2b3c
00000220: b59c bdbc 8081 933c b946 72bc c30f 003d
00000230: 9a64 f2bd b3dd d4bc 6106 57bd ee84 a7ba
00000240: 80ca 7b3d 06e3 eabd aee2 a7bd 49c1 cbbd
00000250: cf8e fd3c e3d2 cb3d 9b36 213e 6bec 563d
00000260: 7146 763d d0ea 59bc 44fb 763d 2980 ae3d
00000270: e42a b53c fa1a 983c d71c 24bd afb5 913d
00000280: 0653 efbc 31f0 7e3d 2037 873d 9fdc 41bd
00000290: 1550 00bd f650 493c c4d9 9bbc 02f7 4cbd
000002a0: 167d 8f3d 04d9 3ebd 982c 14bd bdc8 09bd
000002b0: b446 49bd 4b64 72bb f480 1dbe a912 d93d
000002c0: d11d 5bbd 9c44 953d 052e 3ebc f313 833c
000002d0: b42c ccbd fa98 2fbd a57a b9bd 21dd 2bbc
000002e0: 9797 173e 5ccc 5b3d 283f 38bd eff2 c0bd
000002f0: 6084 453d e9a5 33bd c398 74bc ad3d 41bc
00000300: 08f1 9dbd 6559 d73c 01ce b1bc 6c57 a2bb
00000310: 0f14 f83d 4302 3a3d f860 e13d 6cae 063d
00000320: f3a2 d7bd 0c81 363c c1ac c63c 1076 dcbc
00000330: 1143 073d 9a0a 843d bb20 fc3d 5f45 773c
00000340: 5c50 acbd b741 9fbd 70c0 373d 62c9 013e
00000350: ff72 763c 5ad2 d6ba 8b95 3ebd e849 3b3d
00000360: a7a6 f63c 950e 07be cf79 57bd 32f7 9a3c
00000370: cf01 0d3e d5e1 85bd f891 b83d 79c8 7bbd
00000380: 4108 70bd dbdc 1cbd 8692 3cbc f208 403d
00000390: 811a 9a3c cf11 8abd 40dc c7bd a198 73bd
000003a0: 39d7 913c 9d87 9abd e620 e5bd c7d9 b4bb
000003b0: d882 f0bd eecd ec3b 5dff 3f3c 3d52 993d
000003c0: 36f4 403e b19b babc 2670 4dbd 8107 e4bc
000003d0: 3d0d 8dbb efda 1c3d defe 3d3d 1402 17bb
000003e0: f60a 9a3c 8a68 0f3c 23df 4f3c 50e7 bfbd
000003f0: 9047 04bd d8bf 993c ca2e 2e3d 8750 b3b9
-0.07387693 0.0005326018 -0.005403492 0.03999645 -0.054831125 0.02142784 0.0060427687 -0.10228968
0.057327256 -0.0582208 0.047021955 0.02395133 0.013070978 -0.11736005 0.0540374 -0.040097866
0.04880493 0.07608706 0.041142423 0.03420035 0.008487966 0.002714519 0.07217389 0.05641632
0.066714056 0.00073296396 -0.02445722 -0.109427325 0.006993593 -0.06394547 0.06065535 0.008214181
-0.13861802 -0.031145044 -0.19009088 0.089958295 -0.03011841 -0.0017352564 -0.028066022 -0.009816263
0.0025001334 -0.04816798 0.041090254 -0.054758165 0.017635973 0.1123739 0.026153808 0.004498845
0.057759956 -0.062004603 -0.0047054836 -0.12836498 0.035396934 -0.14480802 0.0014934494 0.072246335
-0.10378376 0.029397229 0.042166363 0.02741047 0.037395515 -0.06114102 -0.047483362 0.06504066
0.02832276 0.01474928 0.026182204 0.015575808 0.06896143 0.037177816 0.09255442 0.038842376
0.04561117 0.08887814 0.05569417 0.03981759 0.08983051 -0.008129389 -0.042408727 -0.012429221
-0.017287314 0.0024525393 -0.03560893 -0.043831877 -0.030636678 -0.041407887 -0.028374689 0.07810724
0.079967916 -0.023244018 -0.06275516 -0.0006358743 0.06595528 -0.0067849 -0.011604435 0.07011268
-0.022893546 0.026987547 -0.08244791 -0.009466482 0.0506396 0.049177233 0.06958513 -0.09362109
0.024439959 0.01534512 -0.00077899627 -0.085745946 -0.014678968 -0.04082661 -0.07100962 0.0140932575
0.072337426 -0.061011113 -0.054740384 0.05028519 0.09276156 0.019994633 0.09455718 -0.040663168
-0.09205309 -0.058973294 -0.0070135877 0.07798891 0.026623003 0.025151206 0.038138498 -0.006294508
0.049393672 -0.014943313 -0.041166633 0.016096706 0.119611524 -0.04082261 0.033135585 0.010464663
-0.023146013 0.018006086 -0.014787369 0.03126503 -0.118355945 -0.02598462 -0.052496318 -0.0012780705
0.061472416 -0.114690825 -0.081975326 -0.099489756 0.030951886 0.09952333 0.15743487 0.05247156
0.060125772 -0.013300613 0.06029822 0.08520538 0.022115178 0.01856755 -0.040066566 0.071147315
-0.029214393 0.062240783 0.06602311 -0.04732954 -0.031326372 0.012287369 -0.019024737 -0.050040253
0.0700628 -0.04659368 -0.03617534 -0.033638705 -0.049139693 -0.0036986049 -0.15381223 0.10599262
-0.053495232 0.07288477 -0.011607652 0.016000723 -0.09969464 -0.0428705 -0.09056596 -0.010489733
0.1480392 0.05366169 -0.044982105 -0.09421336 0.048221946 -0.043859396 -0.014928999 -0.01179449
-0.07711989 0.026287744 -0.021704676 -0.004954269 0.12113201 0.045412313 0.110048234 0.032881185
-0.10529127 0.011139166 0.024252297 -0.026911765 0.033022944 0.064473346 0.1231093 0.015092223
-0.08413765 -0.07776206 0.044861257 0.12674478 0.015042066 -0.0016389594 -0.046529334 0.04572478
0.030108763 -0.13189156 -0.0526064 0.0189167 0.13770221 -0.06537215 0.09012216 -0.061470482
-0.05860162 -0.03829656 -0.011509543 0.04688353 0.018811466 -0.06741678 -0.09758806 -0.05947173
0.017802821 -0.075453974 -0.111879155 -0.005519125 -0.117437065 0.007226697 0.011718598 0.07486389
0.18843159 -0.022779318 -0.05015578 -0.02783561 -0.0043045566 0.03829473 0.04638564 -0.002304201
0.018804055 0.008752951 0.012687477 -0.09370291 -0.03229481 0.018768236 0.04252509 -0.00034201538

base_model.model.transformer.h.1.attn.c_attn.lora_B.weight f4 [2304, 4]
00000000: 572c 5cbc c271 133e d8b5 b2bd 3bab 38bd
00000010: 8b35 1cbe c18d 80bc 3fa7 663b 28e0 f6bc
00000020: 23a3 143e d2a8 9d3d 150f d03d c952 c23d
00000030: 5837 ba3b 820a b73d 12ef ed3c 8219 aa3c
00000040: 20fe 743b 973f 123e 83f5 3ebe 5d82 3fbe
00000050: 2450 ae3c a18d fb3d cd40 0abd 637d 19bd
00000060: daec 94bd 8a32 d23d 9660 debc d3fc cbbb
00000070: 14f3 70bd 8270 673d a791 3ebd 88a9 4cbc
00000080: a1cb b0bc 8603 893d b5c2 74bd d110 49bd
00000090: 3bcc 8cbc d664 42bc 412d 9ebc 8b98 54bd
000000a0: 6b8e d8bc cf8c 7abd 7860 c13d 0dfc cf3d
000000b0: 8176 933d 7c8d 3bb8 c362 d6bc dece 7ebc
000000c0: f770 1ebd a3b0 68bd b12a b83d 80b0 513d
000000d0: fead 7c3d ea80 053e d3a6 0dbe e2ce 7ebd
000000e0: 522c f1bd 3a4c b63d 9df5 60bd ff3c eebc
000000f0: 1dba 8e3d 8146 a73c aad8 abbd 9cd7 51bd
00000100: 328b f33c 1267 083e ac79 d9bd 601f ffbd
00000110: 2eb7 5b3d 9c39 193d 8a5f 0b3e ba27 fa3d
00000120: efd0 36bb 0f4a 113d b55d fc3d 1731 323e
00000130: f950 c0bc ed08 4a3d 03a5 6d3c 00fd 94bb
00000140: 46cc ffbd d874 d2bd 2ae0 30bc d55d 193d
00000150: 10ac 843d 9e0c 79bd 26e1 aa3d bb09 253d
00000160: fe89 acbd b2ee a1bd be19 b53c a255 1cbd
00000170: 86e8 5e3c 2aad 0ebd befc 8a3c 72a0 f43c
00000180: 09c5 c6bc eb5e 02be cf0d f83d e1a5 da3d
00000190: bfc7 d73d c7a7 0b3c 9c74 92bb 9c88 9b3b
000001a0: 0017 fc3d aa33 e13d d803 0a3c d246 febc
000001b0: a09b 8abd fe12 3cbe 8c4d 733d 8255 933d
000001c0: 7103 77bd 2e92 d8bc 663e 483d 9db5 053d
000001d0: ffc1 f53d aa27 a7bd 5337 893c e9e7 373a
000001e0: 5b45 0a3d ef4b 4bbd c0fc ee3d b3e0 103e
000001f0: 75dd 4cbd 35dc a73d f907 32bd 9677 45bd
00000200: b0ea 91bc 7c53 68bd 3028 45bd 7420 643b
00000210: 7713 94bd cfa5 22bb 3561 91bd 7d4c d9bd
00000220: 8168 d83d 6e8d e93d 8451 18bc 469d aa3c
00000230: 08cc 9dbd fd7f b83d 6239 c5bd a86a c6bd
00000240: 8cd9 bf3d 0be2 863d eef7 f0bc 7d05 3abb
00000250: a169 15be 7427 9c3c 232e 223d 37c2 cd3b
00000260: d454 38bd 2eba 60bb 3819 8ebc 7100 0c3d
00000270: 8d27 c63d a8d4 2dbe 1621 513e 412b 323e
00000280: 943d 0ebd 26fb 4b3c 8628 cc3c 75b9 523d
00000290: 38bd 8fbd ad2e 1f3d c414 d5bd 4688 cfbd
000002a0: 40ce 4b3d 03a6 c03d e52a 48bd 6532 553b
000002b0: 8552 153e 0a08 263d 0814 713d 9098 4e3d
000002c0: 5f0f 11be e574 aabd 3b41 01bd d7c3 4cbc
000002d0: b184 0dbe 9d7e bfbc a475 20bd aac7 32bd
000002e0: 660e bf3d 092a 9d3d dd41 3dbc 028f a43c
000002f0: 9352 4f3e 924d 74bc 935d 283e 0334 303e
00000300: f12f a0bc 3de1 7fbd c31f 533d c651 1e3d
00000310: 5d7f 98bc adfe 15be 13a2 183e 8e30 3a3e
00000320: e318 18be 7250 afbc bd2d e1bc 1d6f 2b3d
00000330: cabb 7ebd e14a 153d 9d7e 993a 0a57 92bc
00000340: 4daa 803c 438c 7ebc 0170 403d 8751 3c3b
00000350: a88e 7fbc 4ded a93d d0ff 88bd f853 5fbd
00000360: f0d8 f7bd 82a3 ca3d b8ef 713d 9f37 893d
00000370: 36f0 91bd 52e5 f0bd 5651 c5bb dc53 0ebd
00000380: 1cec fabd de3b 7f3d bebb 87bc c27b a63b
00000390: c9de 30bd f9be dcbc 8fac afbd e2bf cdbd
000003a0: 2618 683e 3b93 c23d 4982 463b d2f2 65ba
000003b0: 7e54 1a3e 5d3a 3cbb 6401 ab3d 13d0 433d
000003c0: 73f5 86bd 8173 583d f1b8 d6bd 3341 e1bd
000003d0: dd44 bfbd 9f92 cabd 5f1a ac3c 7015 a7bc
000003e0: cad0 6dbd db5f 0e3d b967 483d bc04 083c
000003f0: 8f45 51bc a32b 26bc 1185 913d f99d db3d
-0.013438306 0.14398864 -0.0872609 -0.045085173 -0.152548 -0.015692594 0.0035194901 -0.030136183
0.14515357 0.076982155 0.10159127 0.09488446 0.005682867 0.08937551 0.029044662 0.020764116
0.0037382916 0.1428207 -0.18648343 -0.18702073 0.021278448 0.12282873 -0.033753205 -0.037473094
-0.07271738 0.10263546 -0.027145665 -0.0062252074 -0.058825567 0.05650378 -0.046525624 -0.012491591
-0.021581473 0.06690125 -0.059756 -0.049088303 -0.017187228 -0.0118648615 -0.019308688 -0.05190329
-0.026435098 -0.06116944 0.09442228 0.10155497 0.07200337 -4.4716042e-05 -0.02617014 -0.015552251
-0.03868195 -0.05680908 0.08992518 0.051193714 0.06168937 0.13037458 -0.1383317 -0.062209018
-0.117760316 0.08901258 -0.054921735 -0.02908182 0.06969092 0.020419361 -0.08390935 -0.05123101
0.02972946 0.13320568 -0.1061891 -0.12457156 0.05364149 0.037408456 0.13610664 0.122146085
-0.002789553 0.03547102 0.12322561 0.17401539 -0.02347611 0.04932492 0.014504674 -0.0045467615
-0.12490134 -0.102761924 -0.010795632 0.037443 0.06478131 -0.06080305 0.08343725 0.040292483
-0.084247574 -0.07906856 0.022107001 -0.038167603 0.013605243 -0.03483311 0.01696622 0.029861663
-0.024263876 -0.12731521 0.12112009 0.1067617 0.105361454 0.008523888 -0.0044694673 0.0047465097
0.123090744 0.10996182 0.008423768 -0.03103963 -0.06767964 -0.1836662 0.059400126 0.07194044
-0.060306016 -0.026436891 0.048887633 0.032643903 0.119998924 -0.08161862 0.016750013 0.00070154533
0.03375755 -0.049632963 0.11669302 0.14148216 -0.050015885 0.08196298 -0.043464635 -0.04820975
-0.017812103 -0.056720242 -0.04813403 0.0034809383 -0.07230275 -0.0024818068 -0.07098619 -0.10610292
0.105668075 0.11403929 -0.009296779 0.020826947 -0.077049315 0.09008787 -0.096300855 -0.09688312
0.09367666 0.06586083 -0.029415097 -0.002838462 -0.14591075 0.019061781 0.03959478 0.0062792557
-0.045002773 -0.003429066 -0.01734601 0.03418011 0.096755125 -0.16975653 0.20422778 0.17399313
-0.034726694 0.012450015 0.024921667 0.051446397 -0.070185125 0.038862873 -0.10404351 -0.10133414
0.049757242 0.09406664 -0.048869032 0.0032531258 0.1458226 0.04053501 0.058856994 0.050438464
-0.1416602 -0.08323077 -0.03155635 -0.012497864 -0.13820149 -0.023375804 -0.03917469 -0.043647446
0.09328918 0.07674033 -0.011551348 0.020087723 0.20246343 -0.014911072 0.16441946 0.17207341
-0.01955411 -0.062470663 0.051543962 0.038652204 -0.018615419 -0.14647932 0.14905576 0.18182585
-0.14853244 -0.021400664 -0.02748763 0.041854013 -0.06219081 0.036448363 0.0011710707 -0.01786377
0.015706206 -0.015536371 0.046981815 0.0028735118 -0.015597977 0.08297215 -0.06689417 -0.05452344
-0.121019244 0.09894468 0.059066504 0.06700062 -0.07125895 -0.117624894 -0.006021659 -0.034747943
-0.122520655 0.062312953 -0.016569015 0.005080671 -0.043181214 -0.026946532 -0.08577835 -0.10046364
0.22665462 0.09500738 0.0030290058 -0.000877184 0.15071294 -0.002872131 0.083498746 0.047805857
-0.065897845 0.052844528 -0.104844935 -0.10998764 -0.093393065 -0.09891247 0.021008668 -0.020395964
-0.058060445 0.034759384 0.048927043 0.00830191 -0.012772932 -0.01014224 0.071054585 0.1072349

base_model.model.transformer.h.10.attn.c_attn.lora_A.weight f4 [4, 768]
00000000: 2b5c b6bd 8ec3 983c 49d4 ae3c 9209 edbb
00000010: 7c46 b1bd d7fd f03c 2b7e 323d 229c 6d3d
00000020: 26f3 a73d 9146 f03d c6a4 b2bc 0146 9abd
00000030: c481 d43c 6a66 b6bd 7dec 54bd 01fc 0ebd
00000040: fe27 4fbd 82ac 43bd 61c9 ddbd bb38 81bd
00000050: adb1 c6bd 6b84 b2bd 387b febc dace 16bd
00000060: 2482 d23c 5d66 6d3b a0e2 97bc 07a5 e9bd
00000070: 2306 b9bb 142b a03d 91f3 0c3d 05cd 5a3d
00000080: 4a19 763d 156c c7bd 765d 3d3d d270 b1bd
00000090: d023 d73c c36f 17bc fa91 d5bd 08f6 50bd
000000a0: 775b f53a 1854 993d 7b46 c73c ea27 393d
000000b0: f7db a1bc 02d3 aebd 4486 9c3d cc65 343b
000000c0: b640 dfbd 54a0 643d 9fba c8bd 693d 003d
000000d0: f962 9fbc c554 893d b050 5abd d28c 513d
000000e0: 22f0 e9bd d165 dabd 8fb5 1dbd 7bae 28be
000000f0: b79d 793d e1cf 11bd 0c20 1e3e 2cae a0bd
00000100: 6278 893d 7211 1cbd 652d 853c 708d 9d3d
00000110: d98d f9bc f305 62bd 142b 4dbd 36c9 b9bd
00000120: 5f72 a53d b68a b63d acfd bebd 4bde bb3c
00000130: 9fc5 20bb 3475 f5bc 3270 c33d d58c 093c
00000140: 54f4 fc3c 2fd9 ae3b 918a bb3d eb17 f3bd
00000150: 2c5c c53d 58f2 bfbd c69e 72bb abb0 073e
00000160: d5a0 3fbd e526 9b3d 371f 37be 013d af3d
00000170: ebd6 aebc d0a1 123d de51 6abc e781 3abd
00000180: 09b7 f23d 10be 1cbb 7d1c 53bd 648f 93bd
00000190: 1419 a8bd b6df c1bd 5946 c3bd a077 ac3c
000001a0: 203f adbc 9f76 06be 905a 9ebc 3538 c13b
000001b0: 2b1b 8b3d 5878 a13d 6954 f13c 5419 833d
000001c0: 112b babd 2ab2 e7bb 2d33 e73d 624e 593d
000001d0: db34 bfbc f84e b7bc 422e 193d 3cc0 953c
000001e0: 3740 85bc b77d 84bd 159f 5abd 7224 ebbd
000001f0: 18f2 75bd 5e64 79bc 236b 4d3c 48bd c23c
00000200: 0f9d 3dbd 37da 113d d3a9 03bc 2356 04be
00000210: 6d57 163e c5aa c7bd 2d69 f53d e87d 2e3d
00000220: a494 2cbd d3c9 1b3d 74f5 d9bd 5725 4b3d
00000230: a5cb 61bd 7890 c4bc 6466 993d 86fc 243d
00000240: 9132 79bc ee83 f2bc 6067 2a3c ccaf 91bd
00000250: 1219 2b3c c909 28bd cf79 5d3d cf0d 0d3d
00000260: a099 903b 8148 683d f134 16be 9927 09bd
00000270: 8d93 b1bd 2818 f33d 4400 cfbd 4511 003e
00000280: f10b 93bd f4b1 a03d 1975 90bb b50e 163d
00000290: 2710 d5bd 314d cd3d 4fd2 d2bd 1b8d 983c
000002a0: 767f 263d 817d c2bc 57de 693d e62b 54be
000002b0: ce36 38bd 771d 40bc fa8d 5c3b 3a58 053d
000002c0: d392 d3bd 6806 8cbd 8037 42be 1517 ecbd
000002d0: 74eb cf3c ed65 98bd 9418 51bd e663 af3d
000002e0: 3005 dd3c e6ee 88bd b412 6a3d 65b4 ec3c
000002f0: be00 20bd 1f26 0e3c 646a bebd 4b0b b53d
00000300: aad9 913c 627b 1e3c 340d b7bd 8ed3 7c3c
00000310: 96b8 193d f41c 713d 70f6 6ebd af3d 7fbd
00000320: 1014 bebc 452a 773a e9d2 033e bf98 41bd
00000330: b485 b2bd 78f2 bd3d 9aed 27bd 9434 04bb
00000340: 0385 a93d 9cf6 e0bd 6f6e c0bc a6bd 1cbe
00000350: aa63 05bd 6fcd a9bc bc63 ba3d 951c 40bc
00000360: ad8f a9bd 89fc 073e ae7d b9bb 8e8b a7bd
00000370: 8b18 bcbd 3e1d d3bc d40b b83d 7487 9c3c
00000380: aedd 1c3d e552 b43c f1c7 71bd 3fa3 053c
00000390: 5af9 a93c a15c 343d 54eb 623d 8fca 27bd
000003a0: 0955 0b3d 469a 90bd d5f1 cc3c 6e48 333d
000003b0: 93d0 f4bc 7b02 21bc 49a5 dabd b586 5c3d
000003c0: af16 94bd 9017 9e3d d585 a13d dc45 52bc
000003d0: 2eec f2bc 6e6e 6d3d 4a46 323d 140e 4f3d
000003e0: a0f4 25bc c1f9 ecbc 8d04 c23d 34ac 5dbd
000003f0: f3ae af3d cb9f c7bd dfae 1fbd 3430 fb3d
-0.089042984 0.018647935 0.02134146 -0.007233807 -0.08656022 0.029417915 0.043577354 0.058010228
0.08200674 0.117322095 -0.021807086 -0.075328834 0.025940783 -0.08906253 -0.051983345 -0.0349083
-0.05057525 -0.04777194 -0.108294256 -0.063096486 -0.09701858 -0.08716663 -0.031064615 -0.036818363
0.025696822 0.0036224343 -0.01854068 -0.114084296 -0.0056464835 0.078207165 0.03441197 0.053418178
0.06008271 -0.09737412 0.04623171 -0.08664097 0.026262194 -0.009242955 -0.104282334 -0.051015884
0.0018719275 0.07486743 0.0243256 0.04520408 -0.019758208 -0.0853634 0.07642797 0.0027526496
-0.109010145 0.055816963 -0.0980122 0.031308565 -0.019456374 0.06705622 -0.053299606 0.051159687
-0.11422755 -0.10663951 -0.038503226 -0.16472809 0.060941424 -0.03559864 0.15441912 -0.07845721
0.06712414 -0.038102575 0.016256997 0.07692993 -0.030463146 -0.055181455 -0.05008991 -0.09071581
0.08078455 0.08913176 -0.09325728 0.022933146 -0.0024531854 -0.029963113 0.09542884 0.008395393
0.030878223 0.005335949 0.09157289 -0.11869796 0.09636721 -0.09372395 -0.0037020906 0.13250987
-0.04678424 0.07575778 -0.17883001 0.085565574 -0.021342715 0.035798848 -0.014301745 -0.04553404
0.118513174 -0.0023916997 -0.05154084 -0.07205084 -0.08207908 -0.094664976 -0.09534902 0.021053135
-0.021148264 -0.13131188 -0.019330293 0.005896593 0.06792291 0.07884282 0.029459195 0.06401315
-0.090902455 -0.0070707994 0.11289058 0.053053267 -0.023340633 -0.022376522 0.03739763 0.018280141
-0.016265972 -0.06469291 -0.05337437 -0.11481561 -0.06004533 -0.015221683 0.01253775 0.023771897
-0.04629236 0.035608497 -0.008036095 -0.12923484 0.14681788 -0.097493686 0.11982951 0.042600542
-0.042133942 0.03803427 -0.106425196 0.049596157 -0.05512585 -0.02399467 0.074902326 0.040279888
-0.01520981 -0.029603925 0.010400623 -0.07113609 0.010442989 -0.041024957 0.054071244 0.034436997
0.004412845 0.05670977 -0.14668633 -0.03348503 -0.08670721 0.11869842 -0.101074725 0.12506588
-0.07180012 0.07846442 -0.0044084904 0.03663512 -0.104034714 0.10024489 -0.102940194 0.018621972
0.0406489 -0.023741486 0.057096805 -0.20719871 -0.04497414 -0.011725775 0.003365396 0.032554843
-0.10330739 -0.068371594 -0.18966484 -0.1152784 0.025380827 -0.07441316 -0.05104883 0.08563976
0.026980013 -0.06686191 0.057146743 0.028894613 -0.039063208 0.008676081 -0.09297636 0.088400446
0.017803986 0.009672971 -0.08938065 0.015431298 0.03752955 0.058865502 -0.05834049 -0.062314685
-0.023202926 0.0009428601 0.12873425 -0.04726481 -0.08716908 0.09274763 -0.04099808 -0.002017294
0.08277323 -0.10984537 -0.023490159 -0.1530672 -0.03256575 -0.020727841 0.09101054 -0.0117255645
-0.08279357 0.13279928 -0.005660734 -0.08180915 -0.09184369 -0.02577078 0.08986631 0.019107558
0.038297348 0.022012183 -0.05902857 0.008156597 0.020748783 0.04403365 0.055400208 -0.04096466
0.034016643 -0.07060675 0.025017658 0.043770246 -0.029884612 -0.009827252 -0.10676057 0.053839404
-0.07230889 0.07719338 0.078868546 -0.012834039 -0.029653635 0.057966642 0.043524064 0.050550535
-0.010129124 -0.028927686 0.09473524 -0.054119304 0.08578291 -0.09747275 -0.03898513 0.122650534

base_model.model.transformer.h.10.attn.c_attn.lora_B.weight f4 [2304, 4]
00000000: dae7 e3bc fe83 febc 3ade 263d 94e9 81bd
00000010: 7b5f e53c 8ed0 d53b 1b80 75bd 6d9b ad3d
00000020: b529 82bc 16b3 e5bb 2105 5b3c 1f13 67bd
00000030: 95d3 063c 4295 8e3c d0cb 41bb d152 74bb
00000040: 950c 7e3d ea3a 963d 7767 54bd 1f0b 893d
00000050: 5993 7dbd 9601 85bd d455 943d 29ae 9cbd
00000060: c0ed 7cbc f6d3 4e3b 5aaa 1c3c 3ac2 ee3b
00000070: 82c3 d9bc 46d7 8bbd e0f2 883c fbe3 58bd
00000080: 0d85 60bb 224a 83bc be36 c53c 9bd3 63bc
00000090: dc10 ab3c b53b e6bc 9f5e acbc 3268 1bbd
000000a0: 5109 6b3d 55ad 8f3d 2a0d 7fbd ca34 da3d
000000b0: e5c3 ceba baa4 51bd a0c7 b83b c9c4 10bd
000000c0: 1db6 0f3d 9d7e 7f3d cd77 13bd b664 323d
000000d0: d26b 073b 775c 763c a78c 1abc 41c6 d83c
000000e0: 5ed8 85bd dfe0 61bd 041d 9a3d c3a5 98bd
000000f0: fb91 98ba f801 2ebc 9fd0 80bc 6e06 33bc
00000100: d87e 923d 0e68 b53d 7ad1 69bd 31a5 a93d
00000110: 1e67 8abd 9a28 9cbc ff8f 8f3d a783 03bd
00000120: 1745 0c3d 5aec 203d 143e 41bd 01c5 823d
00000130: 3fe2 8fbc a14b 03bd de91 0f3d 02a9 c7bc
00000140: 5a39 103d 3dbe b53b 10fc 57bd 7b8f 933c
00000150: 7863 003c c4d7 943d e5fe 91bc d61c 3e3d
00000160: 1d80 233d 2e4d 46bc 86b0 26bd 1ca2 163b
00000170: 39a6 9d3d 4519 01bb 372a 85bd 290b 223d
00000180: cb62 5d3d f036 2e3d a125 86bd b775 893d
00000190: fe68 2cbd 8820 75bc 88f0 363d 5100 a0bd
000001a0: 860b e2bc 6515 8bbd c2e0 223d a2f9 7fbd
000001b0: 6c64 f93b 9d22 713d 84c3 c5ba 9e4e 853d
000001c0: 025e 013d 029d 123d 3266 9cbc 4be6 3e3d
000001d0: aa92 09bd c633 eb3a a7ba 9b3c 45a5 5e3c
000001e0: 1d9a edbb 8391 863c d9a5 2c3b 809c 453d
000001f0: 1f23 733b a95e 61bd 789e 8dbc 201b d8bc
00000200: 945f cd3c 6a18 d03c 547f 1fbd f88c eb3c
00000210: fe9d 6b3d 82fe 1f3d 3374 89bd cf4e 5c3d
00000220: a60e 2a3d 40f4 353d fb67 4fbd e101 5b3d
00000230: 0fd9 a33a 861e 2a3d ed58 183c c6ee a43c
00000240: 5278 8dbc 31a2 61ba 2c0f d93c 9da1 e9bc
00000250: e387 00bc 3e77 9c3c a29b d0bb 8bdd 81bc
00000260: 939c 40bd b232 d63c b385 fc3c fb51 debc
00000270: ee3f dbbc b292 cfbb 95c8 b83b 9087 c03c
00000280: 2f78 3abd 00fc 3abd db98 0e3d a261 8ebd
00000290: 3db9 f5bc c762 ebbc 57e3 d73c c1a4 26bc
000002a0: ca90 e03c cc94 cd3b 8efc 0dbd 67bd 473d
000002b0: 94dc d33c c876 9abc 32ce b5bc 2801 d7bc
000002c0: 3ab2 78bc 3524 b6ba 1949 5c3c 2efc 31bc
000002d0: 0f3c 313d e1e4 523d c6eb 45bc 88f1 1f3d
000002e0: dc88 b9bc 8e70 43bd a469 2b3d 85d3 9ebd
000002f0: 1809 a63b 86d8 223d 8557 8abb 0749 ebb9
00000300: c646 703b 7e99 84bd f854 833c 3e64 63bd
00000310: 89c3 463c af8d 9a3c e9ec b3bc a897 70bc
00000320: 22ee 25bd cf41 92bd e89e 2c3d e72b cfbc
00000330: e38c 30bd a5a7 0ebd 2298 323d 4862 89bd
00000340: 6f46 9abd 7aac acbd a530 763d df26 bbbd
00000350: bc04 c3bc 1d78 253c b682 7a3c c651 b93a
00000360: ef4c 313b 4460 32bd 92b0 543c f6f0 e4bb
00000370: b8f2 48ba 11df 8cbc 40aa d6ba ded6 a3bc
00000380: 8257 5a3d b79d 833d 8fcc 45bd 6bd3 e43d
00000390: 82a4 653c e42e c4bc 2ef1 82ba 7cab 25bd
000003a0: e422 033d de4b 0fbb d362 ddbc 78ef 043d
000003b0: e028 b53c 6eee 38bc c1eb 10bc 9d99 f0bb
000003c0: c470 38bb a31d 6abd 89bc adbb ddab 803b
000003d0: 8eb1 fa3c 18f5 83bc fff8 f9bc b703 ad3a
000003e0: fbfa cd3c ea13 ae3c 1db5 33bd 1c4d ec3c
000003f0: 5bd7 2fbd f7ce 7bbd 1676 573d de23 23bd
-0.027820516 -0.031068798 0.040739276 -0.063433796 0.02799963 0.006525106 -0.059936624 0.08476911
-0.015889028 -0.007009874 0.013367922 -0.05641472 0.008229156 0.017405156 -0.0029570945 -0.0037280808
0.062023718 0.07335456 -0.051856484 0.06691574 -0.0619081 -0.06494443 0.07242933 -0.07650406
-0.015437543 0.0031559444 0.009562099 0.007286337 -0.026582483 -0.068281695 0.016717374 -0.052951794
-0.0034258992 -0.01602656 0.024073955 -0.013905431 0.020882063 -0.028104642 -0.021041213 -0.037941165
0.05738193 0.07015482 -0.062268414 0.106546 -0.0015774934 -0.051182486 0.0056390315 -0.03534392
0.035085786 0.062376607 -0.036002923 0.043553077 0.002066363 0.015036694 -0.009432948 0.026461722
-0.065354094 -0.055146094 0.075250655 -0.074534915 -0.0011640185 -0.010620587 -0.015724478 -0.010926826
0.071531 0.088577375 -0.057084538 0.08283461 -0.06757949 -0.01906233 0.07009887 -0.032107975
0.034245577 0.039287902 -0.047178343 0.06385232 -0.017563937 -0.032054547 0.03505122 -0.024372581
0.035210945 0.00554636 -0.05273062 0.018012753 0.007836215 0.072677165 -0.017821738 0.04641422
0.0399171 -0.012103362 -0.04069569 0.0022984808 0.0769772 -0.00196989 -0.065021925 0.039561424
0.054049294 0.04253286 -0.06550146 0.067119054 -0.042092316 -0.014961369 0.044662982 -0.0781256
-0.027593385 -0.0679119 0.039765127 -0.062493928 0.007610848 0.0588709 -0.0015088175 0.06509136
0.031583793 0.035794266 -0.0190917 0.046606343 -0.033587135 0.0017944507 0.019009901 0.013589208
-0.0072510378 0.016426807 0.002634397 0.048244953 0.0037099791 -0.055021916 -0.017287478 -0.026380122
0.02506999 0.025402267 -0.03893979 0.028753743 0.05752372 0.039061077 -0.06711616 0.053786095
0.041517876 0.044422388 -0.050636273 0.05346859 0.0012500602 0.041533016 0.009298545 0.020133387
-0.017269287 -0.0008607237 0.026496492 -0.028519446 -0.007844898 0.019099828 -0.006366209 -0.01585271
-0.04702432 0.02614722 0.030825472 -0.0271387 -0.026763882 -0.006334626 0.0056391456 0.023502141
-0.045524772 -0.045650482 0.034813743 -0.06952216 -0.029995555 -0.028733624 0.026353521 -0.010171116
0.02741279 0.0062738415 -0.034664683 0.048764613 0.025862016 -0.018855467 -0.022193048 -0.026245669
-0.015179211 -0.0013896289 0.013445162 -0.010863347 0.043270167 0.051487807 -0.012080139 0.0390487
-0.022648267 -0.047714762 0.041848794 -0.07755188 0.005067002 0.039757274 -0.004221859 -0.00044877102
0.0036663278 -0.06474589 0.016031727 -0.05551552 0.01213158 0.018866388 -0.021963554 -0.014684595
-0.040510304 -0.07141458 0.042143732 -0.025289489 -0.04310311 -0.034827847 0.043602116 -0.06708199
-0.075329654 -0.08431335 0.060104985 -0.091382734 -0.023805968 0.010099438 0.015289953 0.001413875
0.0027053913 -0.043548837 0.012981551 -0.0069867326 -0.00076655624 -0.01719621 -0.0016377643 -0.019999918
0.05330611 0.06426566 -0.048290785 0.11173137 0.0140162725 -0.02394814 -0.000999009 -0.040446743
0.032015696 -0.0021865289 -0.027024662 0.032454938 0.022114217 -0.011287315 -0.008845271 -0.007342531
-0.0028143385 -0.05715717 -0.005302016 0.0039267377 0.030602243 -0.01610808 -0.030514238 0.001319996
0.02514409 0.02124973 -0.043873895 0.028845362 -0.04292999 -0.061476674 0.05260285 -0.039829127
